checkpoint.pth.tar (torch, 627807 bytes, 34 tensors)

feature1.0.weight f4 [64, 3, 3, 3]
0.529569 -1.030078 0.34248498 0.42162877 -1.4776998 0.86613166 0.10556175 -0.5956784
0.8890487 0.75622284 -0.9304257 0.37322015 0.68825525 -1.3987603 0.7011182 0.20003392
-0.78518665 0.5735305 0.7172542 -0.7971997 0.086003944 0.66102475 -1.1352706 0.41410258
0.3001653 -0.6279628 0.34668508 -0.29116243 -0.64094245 -0.057564087 0.48281363 0.837728
0.54718095 -0.21405162 -0.5472566 -0.46587205 -0.11630871 -0.423483 0.017089847 0.44487143
0.868683 0.3866331 -0.13067782 -0.58872974 -0.6858242 -0.16991074 -0.43260902 0.05643951
0.31321844 0.625478 0.34800482 -0.23603043 -0.392282 -0.40409717 -0.46382487 0.62096775
-0.14203955 -0.95406353 1.1076064 -0.41808385 -0.70823294 1.2518479 -0.31013128 -0.12299829
0.5027067 -0.34408304 -0.4935045 1.0662562 -0.80381256 -0.3736944 1.1976116 -0.75085557
-0.11777735 0.39680982 -0.21550483 -0.42768195 0.8946243 -0.5531394 -0.40647498 1.0441611
-0.66219205 -0.6233131 -0.63893056 0.08405481 0.5565196 -0.37213528 -0.6437425 0.504541
0.74698484 0.40428802 -0.33684573 -0.57696176 0.24419574 0.56460154 -0.2749939 -0.47850248
0.29695663 0.65861505 0.19628051 -0.48278335 -0.45103782 0.18241233 0.36722654 -0.3702411
-0.53049713 0.04027694 0.53783727 0.26283637 0.34123605 -0.029036716 0.07423397 0.3728159
0.21002387 0.012405162 -0.1283578 0.058484226 0.14379875 0.026429968 -0.59996283 -0.37083822
-0.10492563 -0.37471467 -0.22496532 -0.13208188 0.057237152 -0.029507 -0.15685855 -0.5754514
-0.31465372 0.33210102 -0.21888714 -0.1610334 0.48585942 0.5736888 0.5501686 1.1071211
-0.9877907 -0.1805084 -0.80155826 -0.75485724 1.1647701 -0.36066085 1.419617 -0.61237425
1.0414497 -0.8108639 -0.05279359 -0.6745529 -0.42696598 1.0855544 -0.5509528 1.396393
-1.0714324 1.0342511 -0.7419782 -0.18857169 -0.5174795 -0.46240652 0.9240837 -0.31024325
1.2156051 -0.9936741 -0.54591596 -0.22005734 -0.6094297 -0.14919153 -0.0725269 -0.15507793
-0.50720036 -0.687998 -0.19234832 0.5761985 0.85005075 0.2581215 1.0352939 1.3041639
0.8803666 0.33375213 0.14458857 0.6401069 -0.37560108 -0.20442757 -0.41899145 -0.2712625
-0.32508257 -0.0002414368 -0.33084852 -0.7516139 -0.071941 -0.27591467 -0.10467993 -0.101228245
-0.24957612 -0.1593226 0.017973829 -0.43908176 -0.25994924 -0.11007615 0.009203315 -0.15418774
-0.05438103 -0.09186851 0.094373204 -0.079440996 -0.06064435 -0.1056726 -0.13983968 0.12724583
0.18653093 0.12427015 0.37042952 0.38867295 0.13504219 0.37122425 0.3878402 0.26594526
0.25404105 -0.87458634 -0.28567958 0.8833996 1.019687 -0.23436008 -0.8582341 0.116233975
0.28797868 0.044797532 -0.8977189 -0.10683993 0.83111584 1.0816419 -0.3368612 -0.9792549
0.0603855 0.07321264 0.038947336 -0.7820941 -0.11951865 0.72435075 0.89225644 -0.3336485
-0.8210462 -0.029634666 0.26515144 -0.40642673 -0.41246822 -0.23732755 -0.65163064 -0.578955
-0.258084 0.60519207 0.801553 0.773118 0.05953107 0.12885308 0.057059955 -0.22537217
00000000: d591 073f 99d9 83bf 315a af3e badf d73e
00000010: 4425 bdbf ceba 5d3f c230 d83d 617e 18bf
00000020: b298 633f d297 413f 6130 6ebf b616 bf3e
00000030: 7f31 303f 940a b3bf 7b7c 333f b1d5 4c3e
00000040: fe01 49bf e5d2 123f f99d 373f 4815 4cbf
00000050: d622 b03d eb38 293f 8c50 91bf 4105 d43e
00000060: 44af 993e 2cc2 20bf b580 b13e 3e13 95be
00000070: ce14 24bf 52c8 6bbd 5933 f73e 5875 563f
00000080: 0d14 0c3f 5930 5bbe 0219 0cbf c886 eebe
00000090: 4333 eebd c4d2 d8be 0200 8c3c 30c6 e33e
000000a0: 0262 5e3f c6f4 c53e 68d0 05be feb6 16bf
000000b0: 2d92 2fbf 15fd 2dbe ee7e ddbe 1e2d 673d
000000c0: 2b5e a03e 541f 203f b02d b23e f6b1 71be
000000d0: 30d9 c8be d3e5 cebe 747a edbe bef7 1e3f
000000e0: d172 11be 823d 74bf 0cc6 8d3f 160f d6be
000000f0: c14e 35bf 8d3c a03f 87c9 9ebe 87e6 fbbd
00000100: 63b1 003f a72b b0be 9fac fcbe 157b 883f
00000110: a9c6 4dbf df54 bfbe 564b 993f 1238 40bf
00000120: 4035 f1bd a82a cb3e 4cad 5cbe 21f9 dabe
00000130: 1906 653f 8b9a 0dbf 7d1d d0be 12a7 853f
00000140: 6b85 29bf 7391 1fbf f490 23bf ee24 ac3d
00000150: 1278 0e3f 8488 bebe 4fcc 24bf 9929 013f
00000160: 663a 3f3f d7fe ce3e 0b77 acbe c4b3 13bf
00000170: 730e 7a3e ba89 103f 00cc 8cbe 47fe f4be
00000180: b30a 983e ff9a 283f c2fd 483e 612f f7be
00000190: 6eee e6be 4cca 3a3e 1e05 bc3e 3e90 bdbe
000001a0: a9ce 07bf 6ff9 243d b4af 093f 7d92 863e
000001b0: 7eb6 ae3e 68de edbc fb07 983d bae1 be3e
000001c0: 7f10 573e 053f 4b3c 3a70 03be 288d 6f3d
000001d0: fb3f 133e a983 d83c 2a97 19bf 82de bdbe
000001e0: 40e3 d6bd 9ada bfbe 4f5d 66be 7940 07be
000001f0: 8171 6a3d aab8 f1bc 879f 20be c850 13bf
00000200: 4b1a a1be 2509 aa3e f323 60be f1e5 24be
00000210: 91c2 f83e 45dd 123f d9d7 0c3f 25b6 8d3f
00000220: dadf 7cbf 32d7 38be ec32 4dbf 533e 41bf
00000230: 3017 953f 8aa8 b8be 03b6 b53f 8fc4 1cbf
00000240: 394e 853f c794 4fbf 173e 58bd 80af 2cbf
00000250: 499b dabe 72f3 8a3f 3e0b 0dbf 01bd b23f
00000260: b224 89bf 5762 843f 49f2 3dbf f018 41be
00000270: 8979 04bf 8cc0 ecbe c090 6c3f 34d8 9ebe
00000280: f398 9b3f 6d61 7ebf 26c1 0bbf b656 61be
00000290: 9603 1cbf aac5 18be fc88 94bd c0cc 1ebe
000002a0: e2d7 01bf a320 30bf f5f6 44be bf81 133f
000002b0: ed9c 593f 8028 843e 8384 843f d8ee a63f
000002c0: b55f 613f 8fe1 aa3e 070f 143e 0cde 233f
000002d0: c94e c0be 7655 51be 0c86 d6be ebe2 8abe
000002e0: 3971 a6be 332a 7db9 fa64 a9be c569 40bf
000002f0: ce55 93bd b044 8dbe 6e62 d6bd c150 cfbd
00000300: e290 7fbe 7725 23be da3d 933c 53cf e0be
00000310: 1118 85be 9b6f e1bd 80c9 163c 64e3 1dbe
00000320: a5be 5ebd 8f25 bcbd bd46 c13d f6b1 a2bd
00000330: 3666 78bd e06a d8bd 2232 0fbe bb4c 023e
00000340: f701 3f3e 5981 fe3d f0a8 bd3e 2400 c73e
00000350: 8048 0a3e 1b11 be3e fe92 c63e fa29 883e
00000360: ab11 823e e4e4 5fbf 9844 92be 7a26 623f
00000370: 1b85 823f 17fc 6fbe 3bb5 5bbf 140c ee3d
00000380: f171 933e 9e7d 373d e8d0 65bf e5ce dabd
00000390: 02c4 543f 3e73 8a3f 1279 acbe 73b0 7abf
000003a0: c956 773d 82f0 953d 3e87 1f3d 5237 48bf
000003b0: 32c6 f4bd 0d6f 393f eb6a 643f fad3 aabe
000003c0: 1530 52bf 66c4 f2bc eec1 873e 2a17 d0be
000003d0: 092f d3be fe05 73be 44d1 26bf 6536 14bf
000003e0: 9623 84be deed 1a3f 9432 4d3f 10eb 453f
000003f0: dad6 733d 10f2 033e b3b7 693d f6c7 66be

feature1.0.bias f4 [64]
0.020971045 -0.09390137 -0.048400998 0.08627455 -0.04174214 -0.032705143 0.050955944 -0.028744522
0.01668523 -0.11355157 0.06468492 -0.10106163 0.015134119 -0.11271774 -0.09751077 0.091401875
-0.06256488 -0.0039214888 0.0050610937 0.10453651 0.0362672 0.055455066 -0.048603524 -0.03895793
0.082643636 0.041650828 0.028492423 -0.085666016 -0.090674706 0.022939969 -0.08526528 0.079648666
0.094660394 -0.047048822 -0.073221266 0.10997344 -0.060617093 -0.09055195 -0.082458615 0.01973366
0.022061862 0.0733571 0.09149202 0.048451453 0.016216787 0.1026059 -0.046881154 -0.019921392
0.09620213 -0.03824129 0.060912427 0.024364986 0.040099394 -0.025975462 -0.096763045 0.08146816
0.09353055 -0.09021894 -0.053173333 0.0048186476 0.056291915 -0.01607868 -0.049813222 0.08840673
00000000: 78cb ab3c 5d4f c0bd 2040 46bd b6b0 b03d
00000010: cef9 2abd d4f5 05bd 2eb7 503d a279 ebbc
00000020: 77af 883c ba8d e8bd 8779 843d 66f9 cebd
00000030: 19f5 773c 8fd8 e6bd bab3 c7bd e830 bb3d
00000040: 0422 80bd d57f 80bb 88d7 a53b 3d17 d63d
00000050: ea8c 143d da24 633d 7d14 47bd 5a92 1fbd
00000060: 1141 a93d 0f9a 2a3d f168 e93c aa71 afbd
00000070: a9b3 b9bd 9aec bb3c 909f aebd d71e a33d
00000080: 4fdd c13d 44b6 40bd 08f5 95bd c139 e13d
00000090: a149 78bd 4d73 b9bd 10e0 a8bd 7ca8 a13c
000000a0: 14bb b43c 3f3c 963d 2b60 bb3d 0875 463d
000000b0: 11d9 843c 0b23 d23d 7406 40bd 3032 a3bc
000000c0: 9f05 c53d e6a2 1cbd 4f7f 793d 1499 c73c
000000d0: 433f 243d 7eca d4bc b42b c6bd c7d8 a63d
000000e0: f28c bf3d b5c4 b8bd 48cc 59bd bfe5 9d3b
000000f0: 5a92 663d 70b7 83bc f308 4cbd 960e b53d

feature1.1.weight f4 [64]
1.1764865 0.8550422 1.3556801 1.0160358 1.1578708 0.9065462 0.78737444 0.45464933
1.0686274 0.87669593 0.9168704 1.1362606 0.6592425 0.87751454 0.74576694 0.7790601
0.7558162 1.0254213 0.6972286 0.98058903 0.8804241 0.65127474 0.5223724 1.0434176
1.2404007 0.8875434 0.45688897 0.40263933 1.4198653 0.58279455 0.871596 0.6216498
0.9045093 0.5706843 0.7703588 1.019742 1.0017213 0.90679115 0.9205769 1.4160951
1.1142672 0.83834106 0.75222236 0.5915457 1.008016 0.85865444 0.79849035 0.61701
0.8834618 1.0439372 0.64792466 1.0493999 0.5094038 1.332029 1.0109398 0.9753454
0.66711485 1.0906601 0.81333077 0.7431189 1.396053 0.9810118 1.2754315 1.0775615
00000000: 1c97 963f 0ce4 5a3f ed86 ad3f 760d 823f
00000010: 1c35 943f 6913 683f 5f91 493f ccc7 e83e
00000020: c8c8 883f 256f 603f 05b8 6a3f fd70 913f
00000030: 1ec4 283f cba4 603f 95ea 3e3f 7c70 473f
00000040: 2c7d 413f 0141 833f 937d 323f e207 7b3f
00000050: 7963 613f f1b9 263f 33ba 053f b58e 853f
00000060: 73c5 9e3f 0b36 633f 5aed e93e be26 ce3e
00000070: 25be b53f 0632 153f ea20 5f3f 7124 1f3f
00000080: ec8d 673f 5e18 123f 3c36 453f e886 823f
00000090: 6738 803f 7723 683f edaa 6b3f 9b42 b53f
000000a0: 4fa0 8e3f 859d 563f a591 403f 8a6f 173f
000000b0: ab06 813f c7d0 5b3f dd69 4c3f 5ef4 1d3f
000000c0: 8d2a 623f bc9f 853f 64de 253f bc52 863f
000000d0: 4a68 023f ed7f aa3f 7a66 813f 3cb0 793f
000000e0: 0ac8 2a3f c09a 8b3f 7236 503f 0a3d 3e3f
000000f0: ddb1 b23f 9723 7b3f 5741 a33f 89ed 893f

feature1.1.bias f4 [64]
-0.07513953 0.06010667 -0.01627075 -0.028791564 -0.9104316 0.054392602 0.1927904 -0.06035904
-0.027075827 -0.12840502 0.038821027 -0.6818261 -0.50570893 0.10889468 -0.50469565 -0.2851568
-0.20214064 -0.8851795 0.12059814 -0.30352503 0.19678803 0.2105324 0.23119077 -0.6513651
-0.58131623 0.15938887 -0.3542028 0.07809158 -0.07522024 0.015323444 -0.8668887 -0.58408344
0.13681176 0.5135571 -0.52207845 0.025357373 0.041012064 0.15430106 -0.11250309 -0.03256012
-0.13368973 0.048810937 0.18583804 -0.060528215 -0.7679212 -0.049568698 -0.012383066 -0.2652063
0.050374266 -0.37981987 -0.16502765 -0.4573428 0.38423425 -0.031735033 -0.003553397 -0.17316157
0.004585375 0.009081053 0.08940336 0.19836633 -0.030259626 -0.6454263 -0.77305514 -0.41324502
00000000: c1e2 99bd 6932 763d 3c4a 85bc 49dc ebbc
00000010: 0c12 69bf c7ca 5e3d d96a 453e 0a3b 77bd
00000020: 20ce ddbc 9b7c 03be cc02 1f3d 288c 2ebf
00000030: 2476 01bf 2d04 df3d bc33 01bf 1200 92be
00000040: f5fd 4ebe 209b 62bf 28fc f63d a267 9bbe
00000050: cd82 493e ce95 573e 46bd 6c3e ddbf 26bf
00000060: 24d1 14bf d636 233e 125a b5be 7aee 9f3d
00000070: 120d 9abd 2f0f 7b3c 6bec 5dbf 7e86 15bf
00000080: 6218 0c3e 7a78 033f efa6 05bf 44ba cf3c
00000090: 44fc 273d 1901 1e3e 0568 e6bd c35d 05bd
000000a0: f6e5 08be faed 473d 544c 3e3e 6fec 77bd
000000b0: 7c96 44bf 8c08 4bbd 58e2 4abc 1fc9 87be
000000c0: 3f55 4e3d c077 c2be 02fd 28be d628 eabe
000000d0: 5aba c43e 98fc 01bd 1ce0 68bb 4451 31be
000000e0: ea40 963b b2c8 143c 1c19 b73d 8b20 4b3e
000000f0: 09e3 f7bc a83a 25bf f1e6 45bf da94 d3be

feature1.1.running_mean f4 [64]
-0.031824265 0.05673129 0.005905152 0.11510051 -0.041241866 -0.016558962 0.15869315 -0.24046448
0.062329162 -0.13450617 0.11961255 0.08846946 -0.1132703 -0.076960556 -0.20723093 0.22234294
-0.26612943 0.008433606 0.060804743 0.11951029 0.12385928 0.036053706 -0.24274611 0.20824231
0.19110216 0.040577784 0.1859506 -0.3457723 -0.18382588 -0.17779814 -0.08594001 -0.2163543
0.16787659 -0.2875666 -0.28983307 0.14996777 -0.049693044 0.11176647 -0.066215076 -0.059564274
0.022521041 0.07938776 0.056293614 0.006533082 0.20804031 0.08935956 -0.032449227 -0.2335684
0.1305132 0.10007397 -0.119930275 0.011714017 -0.32567322 -0.0009419091 -0.10408575 0.0570139
0.10775141 -0.08198175 -0.27390155 0.034232005 0.029312026 -0.15555198 0.41273686 0.15267634
00000000: 295a 02bd 125f 683d 0180 c13b d1b9 eb3d
00000010: 3bed 28bd a9a6 87bc 7580 223e 523c 76be
00000020: dd4c 7f3d fcbb 09be 6df7 f43d 7a2f b53d
00000030: 42fa e7bd 7f9d 9dbd 5834 54be dead 633e
00000040: 1e42 88be 1b2d 0a3c 650e 793d d0c1 f43d
00000050: efa9 fd3d 0dad 133d 7092 78be 793d 553e
00000060: 49b0 433e e434 263d d669 3e3e 1109 b1be
00000070: da3c 3cbe b710 36be 5101 b0bd fb8b 5dbe
00000080: d7e7 2b3e ee3b 93be 0065 94be 2791 193e
00000090: ef8a 4bbd d2e5 e43d c59b 87bd abf9 73bd
000000a0: 0c7e b83c 0d96 a23d 2294 663d 7713 d63b
000000b0: 8508 553e 2502 b73d 7be9 04bd 8e2c 6fbe
000000c0: 41a5 053e 95f3 cc3d 019e f5bd 26ec 3f3c
000000d0: a4be a6be 73ea 76ba e92a d5bd 6887 693d
000000e0: c5ac dc3d 0ce6 a7bd d33c 8cbe dc36 0c3d
000000f0: c61f f03c 0549 1fbe 3f52 d33e 3057 1c3e

feature1.1.running_var f4 [64]
1.8487531 0.8443625 1.5363377 1.5239046 0.4972083 0.3701947 0.7340776 0.40601328
0.79973614 0.36954728 1.4228626 0.7126381 0.2764134 0.71047765 0.13227348 0.4038755
0.44715765 0.5057222 0.41309738 0.07240675 0.9317527 0.67310846 0.42910403 0.85088
0.83317626 0.80870265 0.24016273 0.74902517 2.1347985 0.83089566 0.27546173 0.8203068
0.8673418 0.3676716 0.43277225 2.3043444 0.7036823 0.63168246 0.26242095 1.928655
0.2694783 0.33557463 0.6019336 0.18831652 0.47427848 1.2198226 1.3163596 0.3484774
2.0325637 0.53552866 0.38376293 0.46256995 0.7532899 3.3672307 1.3027333 0.5626303
0.9955658 1.1613057 0.80530393 1.1030118 4.012071 0.9457795 1.3110422 0.17871219
00000000: f1a3 ec3f 2428 583f b7a6 c43f 4e0f c33f
00000010: 1692 fe3e 298a bd3e 82ec 3b3f f9e0 cf3e
00000020: 82bb 4c3f 4d35 bd3e 5d20 b63f 736f 363f
00000030: 0f86 8d3e dde1 353f b372 073e c5c8 ce3e
00000040: d9f1 e43e 0377 013f 8081 d33e fd49 943d
00000050: 5887 6e3f d650 2c3f 86b3 db3e 46d3 593f
00000060: 0a4b 553f 2307 4f3f 38ed 753e 1dc0 3f3f
00000070: 8aa0 0840 94b5 543f 5209 8d3e a0ff 513f
00000080: 1d0a 5e3f 743f bc3e 5394 dd3e 617a 1340
00000090: 8624 343f f1b5 213f 0a5c 863e 2bde f63f
000000a0: 0ff9 893e 70d0 ab3e 5218 1a3f 0cd6 403e
000000b0: a1d4 f23e 2623 9c3f 797e a83f a16b b23e
000000c0: 8615 0240 6818 093f 937c c43e f8d5 ec3e
000000d0: 9bd7 403f b580 5740 f7bf a63f 8a08 103f
000000e0: 66dd 7e3f aaa5 943f 6628 4e3f 7e2f 8d3f
000000f0: e362 8040 9b1e 723f 3bd0 a73f 5400 373e

feature2.0.weight f4 [64, 64, 3, 3]
-0.11242944 -0.049175628 -0.15999915 0.177302 0.053670064 -0.08187605 0.012322139 0.0060615307
0.12589397 0.03189461 0.11805396 -0.21023743 -0.087645166 -0.10004335 -0.05077302 -0.043479003
0.021114947 0.11650497 0.12776187 -0.050337303 -0.04506159 0.016814604 0.020885441 -0.015506633
-0.1433472 0.18319002 0.016919559 -0.23240787 0.17041925 -0.020054659 -0.20682889 0.017771155
-0.015374815 0.16317303 -0.23898923 -0.09024533 -0.08303623 0.049575925 -0.046115115 -0.13380238
-0.14693415 0.04956369 -0.033294942 -0.2879976 0.03544788 0.18543229 0.14873937 -0.12161857
0.14492626 0.101487584 0.02267814 -0.079302736 0.030486584 0.12630998 -0.021964 0.28806338
-0.13823178 0.052284755 0.059210263 0.050405707 0.13183442 -0.07473447 -0.0758052 0.053007606
0.051036965 0.08522851 0.0028874683 -0.08880672 0.010711183 -0.011657189 -0.0674748 -0.07777178
-0.32826358 0.13114995 -0.13955142 -0.14566404 -0.060206175 -0.08214223 0.20491815 -0.06071341
-0.19793764 -0.006212983 0.004053777 -0.13576885 -0.069517255 -0.20078804 -0.102425426 -0.024537738
-0.11333952 0.072916545 -0.03525565 0.18783389 -0.2533916 0.044371903 -0.2172781 -0.18941885
-0.0041455897 -0.09312135 0.00596649 -0.08965759 -0.06671558 -0.005246849 -0.0996849 -0.11457372
-0.023426041 -0.060111973 -0.16521381 0.10423932 -0.03019767 0.045195024 0.0841171 -0.08340502
-0.0655792 0.031742044 -0.123665504 -0.030363744 0.005392028 0.115218 -0.06630877 -0.11342388
0.36821947 0.06432702 -0.22415595 0.2622397 0.041265253 -0.15592052 -0.078189306 0.047401063
0.016767642 -0.18546888 -0.11485984 0.027174804 -0.072477825 -0.08762815 -0.011607189 -0.13351868
0.10197054 0.04663554 -0.17140749 0.07558495 0.06839658 0.035282314 -0.026637197 -0.038146336
0.06163907 0.053763524 0.052065518 -0.11288923 -0.122520134 -0.02372191 -0.10327432 -0.082567185
-0.08441142 -0.24636304 -0.16642655 -0.04548519 -0.13885146 -0.22334932 -0.0115698045 -0.04965782
-0.2509516 -0.014236928 0.07074465 0.05545438 -0.04326995 0.02769472 -0.14656346 -0.014860083
-0.08988526 -0.0792541 0.06454395 -0.09841343 -0.030216493 -0.019363074 -0.016509362 -0.05215245
-0.0471001 0.056629974 -0.088418335 -0.109307684 -0.13852726 0.1053748 -0.053165462 -0.030604208
0.27021137 0.06413296 0.117040366 0.1848053 0.11124386 0.05387144 0.029298274 -0.043037917
0.0027236335 0.06371032 0.005465617 0.040327363 0.09395442 0.020866863 -0.08089789 -0.031015778
-0.0348699 -0.10147593 -0.15555647 -0.013371432 -0.0897384 -0.10265322 0.0021149155 -0.0006084838
0.13226613 0.29086825 -0.054394618 -0.18157816 0.19111173 -0.1439624 -0.39181414 0.030251754
-0.06803661 0.004058436 -0.051461827 -0.13171503 -0.06470526 -0.11346568 -0.037790302 -0.08774722
0.09930498 -0.27740598 0.10537186 0.13521267 -0.22096762 0.082632594 0.16193354 -0.1885023
-0.0070909513 0.23846306 -0.09575213 0.016694246 0.031973414 -0.06297332 -0.047728848 0.092156224
-0.0025423989 -0.077720866 0.03359293 -0.09963148 -0.007856166 0.014384571 -0.12674215 -0.09529074
-0.053642377 -0.09940354 -0.09024272 -0.003135196 -0.15872687 0.025071725 0.02263333 0.14347379
00000000: 6841 e6bd 626c 49bd d1d6 23be a88e 353e
00000010: 24d5 5b3d a1ae a7bd cce2 493c ce9f c63b
00000020: 59ea 003e eca3 023d 46c6 f13d 7b48 57be
00000030: 4f7f b3bd 87e3 ccbd 5ff7 4fbd 0a17 32bd
00000040: 41f9 ac3c 289a ee3d 02d4 023e 7d2e 4ebd
00000050: 8092 38bd c8be 893c f217 ab3c 880f 7ebc
00000060: 9cc9 12be 2a96 3b3e e39a 8a3c 54fc 6dbe
00000070: 6282 2e3e ab49 a4bc f4ca 53be d094 913c
00000080: a6e6 7bbc d516 273e 98b9 74be 8bd2 b8bd
00000090: e60e aabd 2010 4b3d 34e3 3cbd 7e03 09be
000000a0: e875 16be 4c03 4b3d 4760 08bd 6c74 93be
000000b0: cc31 113d f6e1 3d3e 224f 183e 2813 f9bd
000000c0: 8d67 143e b9d8 cf3d 82c7 b93c 7969 a2bd
000000d0: 00bf f93c 6757 013e d9ed b3bc 0b7d 933e
000000e0: a28c 0dbe 8a28 563d 7686 723d 3776 4e3d
000000f0: 9aff 063e 630e 99bd c23f 9bbd 811e 593d
00000100: 230c 513d 498c ae3d ae3b 3d3b 4ce0 b5bd
00000110: f57d 2f3c cbfd 3ebc 3a30 8abd d046 9fbd
00000120: 2a12 a8be 2c4c 063e 91e6 0ebe f428 15be
00000130: c09a 76bd 2f3a a8bd 10d6 513e a0ae 78bd
00000140: 2ab0 4abe 4796 cbbb 8cd5 843b fd06 0bbe
00000150: 105f 8ebd 619b 4dbe 6cc4 d1bd 5e03 c9bc
00000160: 8d1e e8bd 4555 953d 3a68 10bd 8757 403e
00000170: 8bbc 81be 50bf 353d 267e 5ebe 04f7 41be
00000180: bad7 87bb 68b6 bebd 8c82 c33b 669e b7bd
00000190: 2ea2 88bd c2ed abbb 9927 ccbd a0a5 eabd
000001a0: f8e7 bfbc f937 76bd cf2d 29be 6d7b d53d
000001b0: 1b61 f7bc 6b1e 393d 9645 ac3d 40d0 aabd
000001c0: 634e 86bd f203 023d 5744 fdbd 63bd f8bc
000001d0: 9caf b03b 6af7 eb3d e4cc 87bd c74a e8bd
000001e0: 4387 bc3e e2bd 833d 2389 65be 4844 863e
000001f0: c105 293d a1a9 1fbe b721 a0bd 9e27 423d
00000200: 4b5c 893c 8eeb 3dbe a33b ebbd b29d de3c
00000210: 416f 94bd 6376 b3bd 142c 3ebc 1fb9 08be
00000220: eed5 d03d e804 3f3d 7285 2fbe 48cc 9a3d
00000230: 8213 8c3d 3084 103d 4036 dabc 553f 1cbd
00000240: 4079 7c3d 2437 5c3d a742 553d 7832 e7bd
00000250: d6eb fabd 7354 c2bc 7d81 d3bd fc18 a9bd
00000260: e5df acbd 9846 7cbe b96b 2abe ae4e 3abd
00000270: 142f 0ebe afb5 64be 478f 3dbc 0066 4bbd
00000280: ba7c 80be 0142 69bc 92e2 903d 2224 633d
00000290: d53b 31bd 0ae0 e23c bb14 16be b577 73bc
000002a0: c315 b8bd f94f a2bd 9e2f 843d fb8c c9bd
000002b0: 9488 f7bc 4f9f 9ebc a43e 87bc cf9d 55bd
000002c0: 09ec 40bd d5f4 673d ac14 b5bd b5dc dfbd
000002d0: 17da 0dbe bece d73d 07c4 59bd adb5 fabc
000002e0: 2559 8a3e 2458 833d dcb2 ef3d 9a3d 3d3e
000002f0: d2d3 e33d 4da8 5c3d ef02 f03c 8748 30bd
00000300: fd7e 323b 8e7a 823d eb18 b33b 4e2e 253d
00000310: 2d6b c03d fcf0 aa3c cbad a5bd cd14 febc
00000320: bed3 0ebd 9dd2 cfbd 324a 1fbe da13 5bbc
00000330: c4c8 b7bd da3b d2bd 659a 0a3b a882 1fba
00000340: c670 073e afec 943e e4cc 5ebd a0ef 39be
00000350: cbb2 433e e16a 13be dd9b c8be 87d2 f73c
00000360: c756 8bbd a1fc 843b a3c9 52bd 4ee0 06be
00000370: 3184 84bd b260 e8bd 01ca 1abd d1b4 b3bd
00000380: 6960 cb3d 2808 8ebe 34cd d73d 3175 0a3e
00000390: 5645 62be 473b a93d e8d1 253e bf06 41be
000003a0: 365b e8bb a92f 743e b119 c4bd 5fc2 883c
000003b0: 8ef6 023d 28f8 80bd 537f 43bd 67bc bc3d
000003c0: 609e 26bb 1e2c 9fbd bd98 093d 970b ccbd
000003d0: 26b7 00bc 44ad 6b3c b2c8 01be cb27 c3bd
000003e0: 1cb8 5bbd 1594 cbbd 2dd1 b8bd dc77 4dbb
000003f0: 4c89 22be 3863 cd3c 8969 b93c cbea 123e

feature2.0.bias f4 [64]
6.58778e-05 0.01796492 0.01924497 0.024495421 -0.009840241 0.016579546 -0.0067422935 -0.010340933
0.020712053 -0.015391484 -0.011802902 0.014343968 0.024448372 -0.020875702 -0.015654905 0.009486163
0.014276656 0.014926168 0.0054132445 0.0005731721 0.02331641 0.00055404357 -0.0008199645 -0.005246883
0.023230018 -0.011360529 -0.0073126988 0.015805257 0.02434546 0.01756618 0.0011511354 -0.02366088
-0.022762382 0.009894643 0.0223893 -0.014472536 -0.013790603 0.019885663 -0.016397612 0.013984018
0.0008825574 -0.023422949 -0.008535116 0.009157837 0.022554979 -0.011420201 -0.0003228093 -0.019759636
0.017492067 0.021549877 -0.008566033 0.007508116 0.012372872 -0.022005659 0.02134628 -0.011365359
-0.0008734267 0.021973934 0.015698733 -0.006562162 -0.0088313 -0.011489818 0.024583185 0.015639355
00000000: e027 8a38 2b2b 933c a1a7 9d3c 9faa c83c
00000010: f638 21bc d4d1 873c 75ee dcbb 046d 29bc
00000020: 53ac a93c 902c 7cbc f660 41bc f602 6b3c
00000030: f447 c83c 8503 abbc b73e 80bc da6b 1b3c
00000040: a3e8 693c e38c 743c 9661 b13b ee40 163a
00000050: 0e02 bf3c 3c3d 113a e3f2 56ba 0bee abbb
00000060: e14c be3c 8321 3abc 5d9f efbb 077a 813c
00000070: 2170 c73c f3e6 8f3c b2e1 963a 76d4 c1bc
00000080: 2d78 babc 241d 223c c469 b73c 371e 6dbc
00000090: fbf1 61bc 42e7 a23c 4954 86bc 391d 653c
000000a0: 6d5b 673a 7ce1 bfbc dfd6 0bbc c10a 163c
000000b0: 38c5 b83c cb1b 3bbc bb3e a9b9 f6de a1bc
000000c0: 864b 8f3c 5e89 b03c 8c58 0cbc a406 f63b
000000d0: 96b7 4a3c 3645 b4bc 65de ae3c c535 3abc
000000e0: acf6 64ba ae02 b43c a19a 803c 6807 d7bb
000000f0: 28b1 10bc ca3f 3cbc ad62 c93c 1b1e 803c

feature2.1.weight f4 [64]
1.3360109 1.0146483 1.0259922 0.8889251 1.0593519 1.0282844 1.3041437 1.6928062
0.89977497 0.752442 1.3757658 1.2859553 1.03053 1.0861388 1.0113012 1.2968041
1.2016708 1.1148124 0.79430056 1.1497734 1.0982876 1.7278801 1.0182173 0.8848157
0.90809953 1.0533546 0.94428533 0.8819596 0.95474976 0.9869524 1.4207026 1.0649599
1.1257429 1.1698755 1.3420986 1.0449222 0.6701491 1.2992833 0.873526 1.2652642
0.8020226 0.682343 1.2510637 0.8129584 1.403312 1.2448508 0.9810867 1.4358283
0.9684153 0.8564596 0.8874903 1.3394438 0.8870485 0.93292445 1.1015723 1.3506001
0.71839505 0.84723675 1.288222 1.0192934 1.1585948 0.8622211 0.7890753 0.7047454
00000000: 6802 ab3f ffdf 813f b653 833f 9890 633f
00000010: d898 873f d39e 833f 2eee a63f e0ad d83f
00000020: a757 663f 0aa0 403f 1819 b03f 2f9a a43f
00000030: 68e8 833f 9906 8b3f 5172 813f adfd a53f
00000040: 59d0 993f 2cb2 8e3f 4857 4b3f c62b 933f
00000050: b094 8c3f 2d2b dd3f f254 823f 4883 623f
00000060: 3679 683f 53d4 863f afbc 713f 1bc8 613f
00000070: 7b6a 743f eaa8 7c3f 95d9 b53f 9b50 883f
00000080: 5818 903f 7bbe 953f e3c9 ab3f 03c0 853f
00000090: e48e 2b3f ea4e a63f 669f 5f3f 2df4 a13f
000000a0: 5a51 4d3f 08ae 2e3f db22 a03f 0b1e 503f
000000b0: ba9f b33f 4557 9f3f 7f28 7b3f 39c9 b73f
000000c0: 11ea 773f f040 5b3f 9032 633f e572 ab3f
000000d0: 9c15 633f 23d4 6e3f 5200 8d3f 77e0 ac3f
000000e0: bde8 373f 82e4 583f 75e4 a43f 3578 823f
000000f0: d64c 943f 86ba 5c3f d700 4a3f 326a 343f

feature2.1.bias f4 [64]
-1.2457592 -0.722514 -0.45129344 -0.41732624 -0.40283757 -0.39391685 -1.0469533 -1.3423904
-0.91980255 -0.17646748 -0.8400838 -0.7276781 -0.6210899 -0.2916303 -0.51544017 -0.5658489
-0.66439635 -0.64961344 -0.23143025 -0.7479836 -0.72907805 -1.0559671 -0.6643692 -0.645114
-0.5544977 -0.2561196 -0.5491637 -0.3062349 -0.37929848 -0.62571675 -0.7544744 -0.54359764
-0.6402042 -0.65281105 -0.9504927 -0.5410973 -0.11598707 -1.0880114 -0.45577124 -0.7297816
-0.24686079 -0.5205755 -0.7608686 -0.3893996 -1.3566226 -0.7571125 -0.8058098 -0.96444684
-0.6159573 -0.5511706 -0.8571974 -0.79839534 -0.5972134 -0.51335454 -0.68812585 -0.83351564
-0.1364776 -0.47146547 -0.7833483 -0.4277731 -0.4049588 -0.5200098 -0.32382193 -0.31373838
00000000: 0a75 9fbf adf6 38bf ef0f e7be c9ab d5be
00000010: ba40 cebe 78af c9be 9102 86bf 73d3 abbf
00000020: 2e78 6bbf e4b3 34be bb0f 57bf 1d49 3abf
00000030: bfff 1ebf 9150 95be e3f3 03bf 79db 10bf
00000040: e115 2abf 114d 26bf 0dfc 6cbe da7b 3fbf
00000050: dca4 3abf ee29 87bf 1a14 2abf 3126 25bf
00000060: 90f3 0dbf 1c22 83be fe95 0cbf d2ca 9cbe
00000070: 6933 c2be f92e 20bf 3c25 41bf 3729 0bbf
00000080: 6ce4 23bf a01e 27bf 7d53 73bf 5a85 0abf
00000090: a18a edbd f543 8bbf d95a e9be f8d2 3abf
000000a0: 13c9 7cbe 7044 05bf 49c8 42bf 625f c7be
000000b0: cfa5 adbf 20d2 41bf 8d49 4ebf fde5 76bf
000000c0: 61af 1dbf 8419 0dbf 4a71 5bbf a363 4cbf
000000d0: fae2 18bf 346b 03bf 0429 30bf 4861 55bf
000000e0: c9c0 0bbe ec63 f1be 8489 48bf 1305 dbbe
000000f0: c356 cfbe 5d1f 05bf fdcb a5be 51a2 a0be

feature2.1.running_mean f4 [64]
-3.5809371 -3.186232 -3.0335135 -4.3455973 -3.5345712 -2.5166326 -6.898394 -9.242492
1.8464257 -3.4264357 -5.319736 -8.175819 -3.8728871 -2.5388687 -6.8359995 -5.9127865
-4.347614 -4.5276613 -0.92509216 -5.459086 -5.491396 -9.134176 -5.4749393 -1.5424978
-4.300548 -5.0112586 -4.4553137 -2.566697 -5.9399934 -3.9927242 -7.7772717 -1.9630803
-3.7649689 -5.8145456 -6.6384 -3.9953487 -0.38344827 -4.667944 -3.7739573 -5.0153446
-1.4303656 0.13954867 -4.2447042 -0.4469933 -6.841734 -5.353587 -4.9402323 -8.296408
-2.7620695 -0.008306081 -2.8182917 -3.2400165 -1.1172558 -4.9820614 -6.527468 -4.596527
-5.5160804 -2.121349 -7.332727 -2.9198158 -8.013944 -4.5726643 -2.936889 -3.5600827
00000000: 132e 65c0 3aeb 4bc0 1625 42c0 220f 8bc0
00000010: 6a36 62c0 8210 21c0 a5bf dcc0 3fe1 13c1
00000020: ad57 ec3f b94a 5bc0 473b aac0 28d0 02c1
00000030: 62dd 77c0 d37c 22c0 82c0 dac0 8c35 bdc0
00000040: a71f 8bc0 9ae2 90c0 d7d2 6cbf d5b0 aec0
00000050: 84b9 afc0 9625 12c1 b432 afc0 9170 c5bf
00000060: 179e 89c0 3b5c a0c0 ee91 8ec0 c344 24c0
00000070: 6d14 bec0 cb88 7fc0 69df f8c0 3746 fbbf
00000080: 40f5 70c0 c210 bac0 c66d d4c0 cbb3 7fc0
00000090: 5553 c4be cc5f 95c0 8488 71c0 b47d a0c0
000000a0: 3816 b7bf d9e5 0e3e 9ed4 87c0 4edc e4be
000000b0: 7cef dac0 9650 abc0 6216 9ec0 16be 04c1
000000c0: bfc5 30c0 3b16 08bc e45e 34c0 6e5c 4fc0
000000d0: 3d02 8fbf 0c6d 9fc0 05e1 d0c0 c016 93c0
000000e0: bb83 b0c0 2fc4 07c0 b3a5 eac0 43de 3ac0
000000f0: 1d39 00c1 4453 92c0 fdf5 3bc0 65d8 63c0

feature2.1.running_var f4 [64]
12.188413 13.988641 26.7075 20.498953 34.689526 16.93557 26.650663 35.05916
10.030532 13.980454 31.97424 26.908995 23.713865 39.27772 26.429155 30.151598
24.222198 18.924753 18.297136 23.985144 29.599447 46.235348 17.66696 15.450322
18.423101 26.035461 13.190106 25.84256 26.917536 17.756622 38.31379 13.87683
17.568815 27.800518 38.455032 20.557735 18.42833 17.373386 22.942938 25.737154
10.964705 7.3255787 32.68592 15.102521 22.725845 23.907187 14.729232 35.182796
16.670172 17.220957 10.771933 21.404379 11.546125 25.665915 16.948847 39.240383
21.811138 17.598091 37.74963 20.516302 36.765747 14.747563 16.801455 20.517818
00000000: bd03 4341 79d1 5f41 f6a8 d541 dbfd a341
00000010: 13c2 0a42 0c7c 8741 8f34 d541 943c 0c42
00000020: 0f7d 2041 f1af 5f41 3ecb ff41 9f45 d741
00000030: ffb5 bd41 631c 1d42 e96e d341 7936 f141
00000040: 10c7 c141 e565 9741 8960 9241 93e1 bf41
00000050: abcb ec41 fff0 3842 ef55 8d41 8534 7741
00000060: 8362 9341 a048 d041 ad0a 5341 90bd ce41
00000070: 1d57 d741 900d 8e41 5241 1942 7f07 5e41
00000080: ef8c 8c41 7667 de41 f4d1 1942 3e76 a441
00000090: 386d 9341 b2fc 8a41 238b b741 b1e5 cd41
000000a0: 6f6f 2f41 246b ea40 62be 0242 eda3 7141
000000b0: 88ce b541 eb41 bf41 efaa 6b41 2fbb 0c42
000000c0: 835c 8541 85c4 8941 d659 2c41 2b3c ab41
000000d0: eebc 3841 cb53 cd41 3d97 8741 27f6 1c42
000000e0: 367d ae41 e4c8 8c41 9fff 1642 6321 a441
000000f0: 2010 1342 05f6 6b41 6169 8641 7e24 a441

feature3.0.weight f4 [64, 64, 3, 3]
-0.025060872 -0.0844007 0.22186013 0.12201361 -0.070181176 -0.038194507 0.20832245 0.021366527
0.04892667 -0.14978741 0.27729848 0.27113333 -0.019850135 -0.015493093 -0.030540273 -0.08627591
-0.09750455 -0.063197315 -0.02296854 -0.31522647 -0.05752198 -0.15912007 -0.31964433 -0.26686236
0.20546481 0.22854246 0.11428677 0.02797904 0.017784182 -0.05790597 0.0011673284 0.063796766
-0.109971784 0.31346676 -0.06151036 0.14293726 0.33282456 -0.08702951 0.034957796 0.0054799845
-0.11312901 -0.00018776741 0.04838306 -0.103618376 -0.037593544 0.025651773 0.0183347 -0.11092239
0.062863134 0.047230892 -0.19223066 -0.16077355 0.018460738 -0.4279534 -0.13246107 -0.038983986
-0.01362201 -0.19575146 -0.120161876 -0.05600243 -0.18954064 0.18356258 0.119617864 -0.14741868
-0.008168879 -0.078555115 0.1760024 0.031530675 0.007523904 0.09663199 0.12777567 0.08049952
-0.3140211 -0.13529795 0.09920844 -0.09427213 -0.04583935 0.077246435 -0.15425172 -0.13320366
0.015713196 0.14567411 0.25287092 0.0005539733 0.28074768 0.06922739 -0.06950181 0.28854302
0.045000147 0.14123705 0.24808693 -0.24068567 0.026911397 0.07119543 -0.24166268 -0.25545397
0.12884967 0.026356502 -0.010659916 -0.0012703616 0.093487196 -0.15571521 0.08225437 -0.20921426
-0.25026584 0.01231855 -0.118830286 -0.14008613 0.2478705 -0.037354454 0.19732225 -0.02473926
-0.3300861 -0.29306188 0.026065528 -0.037063316 -0.12546209 -0.0065757823 -0.106786385 -0.14714618
-0.13595223 -0.039975815 -0.0738755 -0.21129917 0.17230429 0.2567526 0.08533156 -0.047091115
-0.0342893 0.0027152507 -0.053081952 0.44365785 -0.0880538 0.1954434 0.25742236 0.009990678
-0.022506488 -0.18281023 0.27512753 0.24015325 -0.050851185 0.022946704 0.25284505 0.08726862
-0.06867998 -0.1588975 -0.059913363 -0.07888122 -0.24629319 -0.22908996 -0.21731669 0.0737788
0.05956694 0.0655796 -0.031887997 -0.38031644 -0.024800349 -0.26669988 -0.41744548 -0.08719442
-0.09530881 -0.10455713 -0.026324341 -0.10797677 -0.008257075 0.12039991 -0.050905317 -0.12820984
-0.012217012 -0.21518952 -0.029018948 0.109853536 -0.16525106 -0.069508076 0.056562833 -0.09427422
-0.028086537 0.15464574 0.032519903 0.18161514 -0.10199174 -0.17713246 0.036070734 -0.18453576
-0.17313279 -0.1548866 -0.12284425 0.111960106 0.13182054 -0.12128385 -0.07550408 -0.16539747
0.038210306 -0.13144816 -0.20901553 -0.007992551 0.049592394 -0.085787274 -0.00288846 -0.067734025
0.10586426 -0.22071266 -0.073927656 -0.240574 0.18501006 -0.087666325 -0.1308375 0.0038593917
-0.22165114 -0.28902134 0.26002574 -0.027693415 0.03688289 0.017880341 -0.20247236 -0.03031584
0.08886441 0.24950227 0.49023893 -0.094653845 0.17117783 0.16690148 0.09445756 -0.11092789
-0.06826904 0.042776775 0.06093669 0.11719617 0.20779139 0.0016982427 0.13238269 -0.2122597
-0.33631194 0.016187517 -0.07620699 0.033668876 0.1815869 -0.005770395 0.026836699 0.062053163
0.07272056 0.057698667 0.10177273 0.020212548 0.12736621 0.24334544 -0.06145062 0.0040090596
-0.17636585 -0.12730095 0.20440345 0.08763822 0.07329928 0.047442246 0.052938987 0.014492744
00000000: 754c cdbc 46da acbd 4d2f 633e 46e2 f93d
00000010: 26bb 8fbd d871 1cbd 7b52 553e db08 af3c
00000020: 5567 483d df61 19be 11fa 8d3e fdd1 8a3e
00000030: c09c a2bc bed6 7dbc 982f fabc 6db1 b0bd
00000040: 77b0 c7bd 986d 81bd 8528 bcbc 5d65 a1be
00000050: 2b9c 6bbd 5ff0 22be 6ca8 a3be 2fa2 88be
00000060: 5e65 523e 0907 6a3e 2f0f ea3d 4d34 e53c
00000070: 22b0 913c cf2e 6dbd 0b01 993a e1a7 823d
00000080: e338 e1bd b77e a03e 4af2 7bbd 255e 123e
00000090: fb67 aa3e 873c b2bd e82f 0f3d 7191 b33b
000000a0: 2fb0 e7bd 6ee3 44b9 512d 463d df35 d4bd
000000b0: b0fb 19bd ab23 d23c a732 963c 472b e3bd
000000c0: 63be 803d 2e75 413d 1dd8 44be d2a1 24be
000000d0: f93a 973c b51c dbbe e0a3 07be acad 1fbd
000000e0: da2e 5fbc 1273 48be 6e17 f6bd ce62 65bd
000000f0: f116 42be d4f7 3b3e 36fa f43d ecf4 16be
00000100: c3d6 05bc 81e1 a0bd f939 343e 4f26 013d
00000110: 158b f63b fee6 c53d a0d7 023e efdc a43d
00000120: 60c7 a0be 8c8b 0abe cb2d cb3d bf11 c1bd
00000130: 0bc2 3bbd 6133 9e3d 2af4 1dbe 8a66 08be
00000140: f6b8 803c 982b 153e 4c78 813e 8538 113a
00000150: 29be 8f3e 17c7 8d3d f756 8ebd e9bb 933e
00000160: 1352 383d 72a0 103e 800a 7e3e 4e76 76be
00000170: 4a75 dc3c e9ce 913d 6c76 77be ddca 82be
00000180: 2bf1 033e 97e9 d73c eea6 2ebc 4382 a6ba
00000190: 3776 bf3d cf73 1fbe fb74 a83d 433c 56be
000001a0: d822 80be bed3 493c 4b5d f3bd bd72 0fbe
000001b0: c4d1 7d3e fc00 19bd d80e 4a3e fda9 cabc
000001c0: 0c01 a9be 350c 96be 6087 d53c b4cf 17bd
000001d0: 2279 00be a979 d7bb d2b2 dabd 7dad 16be
000001e0: 1037 0bbe aebd 23bd 0a4c 97bd cf5e 58be
000001f0: 8970 303e 1475 833e 50c2 ae3d 9de2 40bd
00000200: f072 0cbd 59f2 313b 766c 59bd 1f27 e33e
00000210: 8d55 b4bd 5122 483e ddcc 833e f1af 233c
00000220: 875f b8bc 9b32 3bbe 84dd 8c3e bcea 753e
00000230: 5549 50bd bafa bb3c e874 813e e4b9 b23d
00000240: 17a8 8cbd 07b6 22be b767 75bd 7a8c a1bd
00000250: 4834 7cbe 8f96 6abe 4488 5ebe 5719 973d
00000260: 77fc 733d 994e 863d fd9c 02bd d6b8 c2be
00000270: 1a2a cbbc e38c 88be 6abb d5be fd92 b2bd
00000280: 4431 c3bd 0c22 d6bd 25a6 d7bc ed22 ddbd
00000290: af48 07bc 3a94 f63d 1882 50bd 7149 03be
000002a0: dd29 48bc a45a 5cbe 25b9 edbc e4fa e03d
000002b0: 9337 29be 405a 8ebd 6eae 673d d812 c1bd
000002c0: bd15 e6bc 745b 1e3e 9733 053d 52f9 393e
000002d0: 0ce1 d0bd 3662 35be e8be 133d f1f6 3cbe
000002e0: b949 31be 989a 1ebe c495 fbbd 574b e53d
000002f0: f7fb 063e ab63 f8bd e2a1 9abd f45d 29be
00000300: 6982 1c3d 599a 06be 2b08 56be 30f3 02bc
00000310: 6521 4b3d 3db1 afbd 514c 3dbb 23b8 8abd
00000320: 5ccf d83d 8002 62be 6267 97bd 0859 76be
00000330: 4773 3d3e 678a b3bd 44fa 05be d9ed 7c3b
00000340: 84f8 62be 9bfa 93be 1822 853e 4ddd e2bc
00000350: 8312 173d cb79 923c ea54 4fbe ed58 f8bc
00000360: 8bfe b53d 867d 7f3e 9900 fb3e e0d9 c1bd
00000370: 3e49 2f3e 39e8 2a3e f772 c13d 292e e3bd
00000380: a3d0 8bbd b336 2f3d c098 793d 8c04 f03d
00000390: 44c7 543e 9297 de3a 548f 073e 9b5a 59be
000003a0: 1431 acbe af9b 843c 6912 9cbd 60e8 093d
000003b0: ebf1 393e 9515 bdbb a3d8 db3c 752b 7e3d
000003c0: 84ee 943d 7055 6c3d 396e d03d c994 a53c
000003d0: 4a6c 023e 8c2f 793e a5b3 7bbd 6e5e 833b
000003e0: 4099 34be 2e5b 02be 234f 513e ab7b b33d
000003f0: ef1d 963d cd52 423d 8dd6 583d f972 6d3c

feature3.0.bias f4 [64]
0.015519055 -0.014393676 -0.018835668 0.018682586 0.023112757 0.0038043535 0.0004367081 0.020381996
0.00991796 0.0005768907 0.006572653 0.012220792 0.0083558075 0.009448696 0.018932398 0.017573262
-0.020268356 -0.007932806 0.024333078 -0.0028221228 -0.009645003 -0.009121791 -0.009411599 0.02042244
-0.010155155 -0.024265513 -0.0042085475 -0.002007281 0.00267257 0.015205676 -0.008783368 0.010978431
-0.0041794986 -0.0065283556 -0.023263661 0.02064498 -0.010258 -0.012804383 -0.007573985 0.010006807
0.0021954926 -0.0067170127 -0.014081434 0.0057414044 -0.023350416 0.014316467 0.0025227352 -0.022509506
0.009391231 -0.005270415 -0.0011251892 -0.022212127 0.0024567512 0.01474656 0.024367318 -0.018355874
0.018963393 -0.0045557246 -0.00852688 0.011862709 -0.012293256 0.006828146 -0.006276675 -0.0150018465
00000000: a243 7e3c 74d3 6bbc 424d 9abc 390c 993c
00000010: f756 bd3c 7652 793b f8f5 e439 25f8 a63c
00000020: f07e 223c 7b3a 173a 695f d73b b739 483c
00000030: cce6 083c b4ce 1a3c 1e18 9b3c cdf5 8f3c
00000040: d309 a6bc 9af8 01bc 2a56 c73c 5df3 38bb
00000050: 1306 1ebc 9173 15bc 1b33 1abc f64c a73c
00000060: cf61 26bc 78c8 c6bc dbe7 89bb 968c 03bb
00000070: 4926 2f3b 3a21 793c 1ee8 0fbc e1de 333c
00000080: 2df4 88bb d1eb d5bb 6f93 bebc a91f a93c
00000090: 2c11 28bc 7ac9 51bc 312f f8bb 97f3 233c
000000a0: 41e2 0f3b 631a dcbb d1b5 66bc 6422 bc3b
000000b0: 5f49 bfbc 9d8f 6a3c 7954 253b db65 b8bc
000000c0: aedd 193c 72b3 acbb 167b 93ba 35f6 b5bc
000000d0: 7201 213b 8e9b 713c f89d c73c 0f5f 96bc
000000e0: 1e59 9b3c 3048 95bb 54b4 0bbc cf5b 423c
000000f0: a769 49bc a4be df3b 91ac cdbb 4eca 75bc

feature3.1.weight f4 [64]
1.5292692 1.1055307 1.2526582 1.1994517 1.3971294 1.644118 1.4879079 1.4297639
1.5404769 1.6820579 1.607601 1.625097 1.7685417 1.439151 1.4306952 1.5867007
1.4823226 1.1612116 1.3438107 1.2172794 1.4283614 1.7085489 1.650148 0.98685336
1.3948618 1.3498904 1.2867897 1.4114702 1.4904736 1.0572798 1.4422344 1.2797081
1.1377048 1.1931767 1.191532 1.4216211 1.3449715 1.4246888 1.0219465 1.5307924
1.2219495 1.4905819 1.4862468 1.4886687 1.4210819 1.5939921 1.6206101 1.2892625
1.5915926 1.4430416 1.5477372 1.4604129 1.4520494 1.2356793 1.6370808 1.3941351
1.4392993 1.5962731 1.402128 1.4717952 1.4280417 1.3142507 1.3736326 1.533133
00000000: 18bf c33f 0882 8d3f 1b57 a03f a287 993f
00000010: 23d5 b23f 7572 d23f c473 be3f 8102 b73f
00000020: 592e c53f ac4d d73f dfc5 cd3f 2e03 d03f
00000030: 935f e23f 1a36 b83f 0521 b73f 0219 cb3f
00000040: bfbc bd3f 95a2 943f fd01 ac3f d0cf 9b3f
00000050: 8cd4 b63f bbb1 da3f 0d38 d33f 6ca2 7c3f
00000060: d58a b23f 35c9 ac3f 86b5 a43f 0eab b43f
00000070: d7c7 be3f f254 873f 239b b83f 7acd a33f
00000080: 50a0 913f 04ba 983f 1f84 983f aef7 b53f
00000090: 0728 ac3f 345c b63f 25cf 823f 01f1 c33f
000000a0: d768 9c3f 63cb be3f 563d be3f b28c be3f
000000b0: 03e6 b53f ef07 cc3f 2770 cf3f 8e06 a53f
000000c0: 4eb9 cb3f 96b5 b83f 411c c63f cfee ba3f
000000d0: c1dc b93f bd2a 9e3f dd8b d13f 0573 b23f
000000e0: f63a b83f ad52 cc3f ee78 b33f c963 bc3f
000000f0: 12ca b63f 5e39 a83f 31d3 af3f b43d c43f

feature3.1.bias f4 [64]
-1.5381669 -1.1377218 -0.9022189 -0.55594134 -1.4245893 -1.9307837 -1.3514557 -1.242627
-1.5654856 -1.5602566 -0.8738689 -1.5927863 -1.6739151 -1.2090499 -1.1614764 -1.5791084
-1.4072065 -0.79454064 -1.0935729 -1.1450663 -0.94587034 -1.9016382 -1.9696239 -0.7732991
-1.0862384 -0.8466789 -0.99530435 -1.4472896 -1.3651801 -0.50467145 -1.5367548 -1.217318
-0.7196284 -0.880197 -1.1122634 -1.2152416 -0.7573218 -1.6811992 -0.6911952 -1.7604576
-0.8063757 -1.0023563 -1.5840169 -1.5423844 -1.9170642 -1.9385121 -1.7954692 -1.0586536
-1.1039103 -1.3753825 -1.6054567 -1.142016 -1.4155295 -0.9028069 -2.0267947 -0.74480605
-1.0670513 -1.1869296 -1.2212712 -1.5187582 -1.4002247 -1.3422098 -0.9644248 -1.2957891
00000000: a7e2 c4bf dea0 91bf d1f7 66bf 2c52 0ebf
00000010: f158 b6bf ec23 f7bf 80fc acbf 670e 9fbf
00000020: d561 c8bf 7db6 c7bf dfb5 5fbf 6ce0 cbbf
00000030: da42 d6bf 26c2 9abf 42ab 94bf 3920 cabf
00000040: 581f b4bf 0467 4bbf 32fa 8bbf 8891 92bf
00000050: 8f24 72bf e168 f3bf a31c fcbf eef6 45bf
00000060: dc09 8bbf f3bf 58bf 44cc 7ebf c940 b9bf
00000070: 39be aebf 2632 01bf 62b4 c4bf 14d1 9bbf
00000080: 9139 38bf 9754 61bf a65e 8ebf 098d 9bbf
00000090: d7df 41bf 8931 d7bf 2bf2 30bf ad56 e1bf
000000a0: a36e 4ebf 364d 80bf 11c1 cabf da6c c5bf
000000b0: 5c62 f5bf 2a21 f8bf efd1 e5bf f681 87bf
000000c0: ef4c 8dbf 890c b0bf 9b7f cdbf 952d 92bf
000000d0: 1230 b5bf 5a1e 67bf 01b7 01c0 9cab 3ebf
000000e0: 2395 88bf 4fed 97bf 9d52 9cbf ab66 c2bf
000000f0: 903a b3bf 88cd abbf 8be4 76bf 6bdc a5bf

feature3.1.running_mean f4 [64]
-2.818406 0.24817526 -2.592607 -2.1459844 -3.1423302 -3.4217288 -3.6166131 -3.8857946
-0.40671673 -4.181956 -3.8576477 -5.1273446 -5.405355 -2.2848363 -2.9717 -3.5824592
-0.45950267 1.4913228 -2.2622437 -2.0330024 -3.2341378 -4.6769147 -1.7437952 0.16641884
-1.5470191 -1.895426 -3.398189 -2.9698048 -3.2968774 -1.8937575 -3.0194318 -3.3373187
-4.301174 -0.09989801 -1.7883633 -2.7016556 -7.2129345 -3.739493 -1.310219 -3.9430423
-3.4306543 -4.5951443 -2.2341475 -2.1422703 -2.9911008 -2.7978086 -3.7872975 -1.5783672
-5.1683383 -4.7240505 -3.4267397 -5.429072 -3.2047775 -1.9064653 -4.330622 -4.3329434
-3.3773048 -4.728224 -4.3666954 -2.6200733 -3.626646 -3.03555 -0.9133839 -3.9229667
00000000: c460 34c0 a821 7e3e 46ed 25c0 cf57 09c0
00000010: f01b 49c0 9bfd 5ac0 9776 67c0 dcb0 78c0
00000020: 2d3d d0be 95d2 85c0 b3e3 76c0 3513 a4c0
00000030: abf8 acc0 c23a 12c0 5530 3ec0 0347 65c0
00000040: ef43 ebbe aae3 be3f 9ac8 10c0 b61c 02c0
00000050: 1dfc 4ec0 49a9 95c0 ae34 dfbf b369 2a3e
00000060: b904 c6bf 529d f2bf ee7b 59c0 4811 3ec0
00000070: 0a00 53c0 a566 f2bf 5f3e 41c0 a196 55c0
00000080: 38a3 89c0 5497 ccbd 17e9 e4bf ede7 2cc0
00000090: 5cd0 e6c0 da53 6fc0 42b5 a7bf ce5a 7cc0
000000a0: d78f 5bc0 6c0b 93c0 46fc 0ec0 f51a 09c0
000000b0: 326e 3fc0 4c0f 33c0 1563 72c0 f007 cabf
000000c0: 0763 a5c0 6c2b 97c0 b44f 5bc0 f5ba adc0
000000d0: 131b 4dc0 0e07 f4bf 7594 8ac0 79a7 8ac0
000000e0: c325 58c0 9c4d 97c0 f8bb 8bc0 48af 27c0
000000f0: f81a 68c0 7446 42c0 87d3 69bf e311 7bc0

feature3.1.running_var f4 [64]
5.773348 3.8158069 4.7729287 4.0938187 4.60799 6.295178 5.6155376 5.488839
5.093601 9.055329 7.112782 8.01774 7.1705766 4.4922333 4.704648 5.0866876
5.0217967 3.495788 4.342848 3.589553 5.86497 7.2959914 5.385259 2.4744449
5.6579833 3.7335756 3.9033997 4.6438665 4.8689184 3.236911 4.297398 4.6200852
4.376891 4.602578 3.3267024 5.7442417 6.139553 4.928491 2.7332602 5.7587614
4.870592 5.894812 5.669025 4.704651 4.6162004 5.9766755 8.071024 3.6335127
6.2760453 5.1614184 4.188773 5.775941 4.854271 5.102952 6.210779 5.7354712
6.275153 7.5295825 5.0416174 4.461291 5.6164327 5.1816325 3.9207428 5.2537665
00000000: 44bf b840 2e36 7440 d5bb 9840 9000 8340
00000010: a774 9340 1972 c940 7cb2 b340 92a4 af40
00000020: c8fe a240 a1e2 1041 e99b e340 aa48 0041
00000030: 5d75 e540 60c0 8f40 7a8c 9640 25c6 a240
00000040: 8fb2 a040 feba 5f40 9cf8 8a40 3dbb 6540
00000050: d6ad bb40 c378 e940 0b54 ac40 4e5d 1e40
00000060: 330e b540 e7f2 6e40 4dd1 7940 8e9a 9440
00000070: 2ece 9b40 8d29 4f40 4984 8940 bdd7 9340
00000080: 7e0f 8c40 5248 9340 b1e8 5440 d4d0 b740
00000090: 3877 c440 33b6 9d40 bced 2e40 c647 b840
000000a0: e4db 9b40 4da2 bc40 a768 b540 808c 9640
000000b0: eab7 9340 ed40 bf40 ea22 0141 798b 6840
000000c0: 5dd5 c840 572a a540 6e0a 8640 82d4 b840
000000d0: 3056 9b40 624b a340 b4be c640 fb88 b740
000000e0: 0ece c840 57f2 f040 ee54 a140 e5c2 8e40
000000f0: d1b9 b340 efcf a540 73ed 7a40 db1e a840

classifier.weight f4 [10, 64]
0.19059816 0.44023526 0.86648554 -0.3058066 -0.09416953 0.5466869 0.11083601 -0.41357303
0.10188427 0.28720602 0.40766367 -0.527305 -0.32000014 -0.13595748 -0.45076016 -0.652242
-0.016492696 0.6328153 0.9685985 -0.5281991 1.0277174 -0.09707727 -0.3579791 0.4230082
0.4278576 -0.07134228 -0.5639413 -0.60217184 -0.60810184 -0.5158845 -0.42977908 -0.4963665
0.4980637 0.64941543 0.2341939 0.44397756 -0.26072407 -0.19120245 0.14822258 -0.13297278
0.39677146 -0.46673644 0.5667154 -0.5038643 0.23881689 -0.49576047 -0.2654994 0.06883033
0.16763756 1.2220949 -0.22696418 -0.72520876 -0.52475125 -0.2036428 -0.84543246 -0.5307204
0.9654837 0.9173958 -0.76489395 -0.40911904 -0.5230285 -0.42539737 -0.04743048 -0.11414723
0.29907107 -0.29484063 0.44697088 0.7764103 -0.3087432 0.05830964 0.04734461 0.07054409
1.1258162 0.52683556 0.7232576 0.78928965 -0.18313125 -0.8346743 -0.25449547 0.049198754
-0.73343074 -0.29921412 0.15104799 0.19310807 0.3716804 -0.15308711 1.8414885 -0.20486464
-0.4118367 -0.7314024 -0.5068213 -0.77213323 -0.13381909 0.23606043 1.4952593 -0.055523846
-0.19183835 0.24066104 -0.8119018 0.30509788 -0.59047896 1.3353826 -0.42511734 0.21062197
-0.47285777 -0.6078305 -0.709642 -0.031440698 -0.3430614 1.8339307 0.026201533 -0.17491305
0.32855812 -0.25783968 1.4949316 -0.69525796 -0.2657086 -0.46367407 -0.14764424 -0.98001754
-0.6993791 0.56374776 -0.07819251 -0.5224853 0.32460922 -0.54102266 0.13540195 -0.3450818
-0.55261153 0.9191409 0.31043926 -0.29787636 -0.13475089 1.6149997 0.2498334 -0.041749302
-0.93066627 0.2614428 -0.23832472 0.22888856 0.31726474 -0.6214233 0.3110001 -0.27268395
-0.43018368 0.26858965 -0.020587461 0.50722486 0.20124203 -0.3537613 -0.5277455 0.4212625
0.47398028 0.28342867 -0.21399961 1.0566251 -0.37998912 0.6690873 0.053577524 -0.5005995
-0.58887315 0.6675857 0.20695275 -0.6697128 0.61883503 0.009177922 0.3575035 1.1344649
0.4062313 0.6058032 0.63315207 -0.8129465 0.12215075 -0.3497018 -0.35820436 -0.07140862
-0.53368926 -0.4709381 -0.22694072 -0.59212893 1.262821 -0.5660756 -0.511141 0.1739251
0.40127736 -0.76280993 0.38403 1.0767301 0.11625379 1.2228464 0.045351706 0.13889447
0.6152574 0.31334376 0.096109666 -0.13217102 1.2060744 -0.18422407 -0.93917745 1.0560714
0.074801095 -1.0407169 -0.3400762 -0.68943554 0.690095 0.09175033 -0.3664928 -0.11062369
1.0664326 0.19409488 0.042765703 -0.38278008 -0.6093868 -0.009656058 -0.4490103 0.37427875
0.25463927 0.13530132 -0.08811754 -0.015028365 0.13729136 0.42242894 -0.07404324 0.5763424
0.5924845 -0.15601231 0.31546378 -0.3109991 0.06412112 -0.50286525 -0.40638077 -0.29710558
-0.33040527 0.08306907 -0.08022443 0.080045015 -0.19345303 -0.58442026 0.6143939 0.13361077
-0.65434897 -0.3102514 -0.25357482 0.044343725 0.013194174 0.07348135 -0.51426506 0.5636903
0.021381415 -0.46392128 1.1678876 0.4823358 -0.11630516 -0.21215071 -0.3809484 -0.32344496
00000000: 2a2c 433e 8466 e13e ffd1 5d3f af92 9cbe
00000010: f4db c0bd acf3 0b3f fdfd e23d d8bf d3be
00000020: b3a8 d03d ab0c 933e 4bb9 d03e 76fd 06bf
00000030: 0fd7 a3be 7038 0bbe 09ca e6be 55f9 26bf
00000040: b11b 87bc 2f00 223f 12f6 773f 0e38 07bf
00000050: 3e8c 833f 73d0 c6bd 0949 b7be 8894 d83e
00000060: 2710 db3e e71b 92bd 755e 10bf ef27 1abf
00000070: 90ac 1bbf 0211 04bf 010c dcbe c023 febe
00000080: 3502 ff3e 1740 263f 87d0 6f3e 0751 e33e
00000090: a07d 85be 93ca 43be a9c7 173e 042a 08be
000000a0: a125 cb3e 14f8 eebe 4314 113f 40fd 00bf
000000b0: 6a8c 743e 51d4 fdbe 8aef 87be ebf6 8c3d
000000c0: 2ea9 2b3e 9b6d 9c3f 4c69 68be 48a7 39bf
000000d0: 1956 06bf bd87 50be 436e 58bf 4bdd 07bf
000000e0: f129 773f 73da 6a3f 17d0 43bf 0d78 d1be
000000f0: 32e5 05bf afcd d9be 7746 42bd 06c6 e9bd
00000100: d81f 993e 5af5 96be 5ed9 e43e d3c2 463f
00000110: 9713 9ebe 17d6 6e3d 6cec 413d 6b79 903d
00000120: bf1a 903f b2de 063f 6927 393f e30e 4a3f
00000130: c286 3bbe 37ad 55bf 3b4d 82be a284 493d
00000140: 1ec2 3bbf 9832 99be 53ac 1a3e 1fbe 453e
00000150: e54c be3e dec2 1cbe e5b5 eb3f 09c8 51be
00000160: 43dc d2be 303d 3bbf 0abf 01bf 86aa 45bf
00000170: df07 09be d3b9 713e a864 bf3f f96c 63bd
00000180: 4671 44be d96f 763e ccd8 4fbf ca35 9c3e
00000190: a129 17bf d1ed aa3f fba8 d9be 49ad 573e
000001a0: 6a1a f2be c89a 1bbf 19ab 35bf f6c7 00bd
000001b0: bea5 afbe 3ebe ea3f 99a4 d63c 681c 33be
000001c0: c538 a83e 9003 84be eb59 bf3f 6dfc 31bf
000001d0: f50a 88be b066 edbe 0d30 17be 6ee2 7abf
000001e0: 820a 33bf c651 103f 6523 a0bd 99c1 05bf
000001f0: 2e33 a63e 7680 0abf cfa6 0a3e 90ae b0be
00000200: f377 0dbf d14c 6b3f e5f1 9e3e 4083 98be
00000210: 23fc 09be 4fb8 ce3f 54d4 7f3e 5101 2bbd
00000220: 2540 6ebf d5db 853e 650b 74be c361 6a3e
00000230: 8670 a23e 9915 1fbf 683b 9f3e 3b9d 8bbe
00000240: 0941 dcbe 9584 893e 09a7 a8bc 7dd9 013f
00000250: 6412 4e3e 3320 b5be 541a 07bf b8af d73e
00000260: 8bad f23e 901d 913e b722 5bbe 7e3f 873f
00000270: ef8d c2be 4e49 2b3f 1b74 5b3d 4a27 00bf
00000280: 64c0 16bf e5e6 2a3f 6ceb 533e 4c72 2bbf
00000290: f96b 1e3f ff5e 163c b30a b73e 2536 913f
000002a0: 8dfd cf3e eb15 1b3f 4116 223f 431d 50bf
000002b0: 2c2a fa3d 1d0c b3be 9066 b7be af3e 92bd
000002c0: dc9f 08bf cc1e f1be 2663 68be c395 17bf
000002d0: 1ea4 a13f 55ea 10bf 23da 02bf 6c19 323e
000002e0: 3a74 cd3e 8347 43bf 959f c43e 4bd2 893f
000002f0: 7816 ee3d 3b86 9c3f b6c2 393d 5a3a 0e3e
00000300: 8281 1d3f 986e a03e 25d5 c43d d757 07be
00000310: a560 9a3f 3ca5 3cbe ef6d 70bf 592d 873f
00000320: 5131 993d 3636 85bf 781e aebe d97e 30bf
00000330: 11aa 303f 99e7 bb3d f2a4 bbbe ac8e e2bd
00000340: dd80 883f cfc0 463e 172b 2f3d c0fb c3be
00000350: c600 1cbf 7134 1ebc aee4 e5be 77a1 bf3e
00000360: 1460 823e 6e8c 0a3e f876 b4bd 8839 76bc
00000370: 1b96 0c3e 9b48 d83e fba3 97bd 2d8b 133f
00000380: 10ad 173f b1c1 1fbe 7884 a13e 463b 9fbe
00000390: ef51 833d c7bb 00bf 2411 d0be 391e 98be
000003a0: e12a a9be 1e20 aa3d b54c a4bd a4ee a33d
000003b0: 8d18 46be 919c 15bf eb48 1d3f 43d1 083e
000003c0: 6a83 27bf 46d9 9ebe 8fd4 81be c4a1 353d
000003d0: 602c 583c 647d 963d e0a6 03bf 024e 103f
000003e0: 1428 af3c 1787 edbe 577d 953f b8f4 f63e
000003f0: 6631 eebd 093e 59be ab0b c3be 949a a5be

classifier.bias f4 [10]
0.19645451 -0.571783 -0.63339454 0.8031941 0.2928948 0.60225195 0.13805348 -0.10632785
-0.5935207 -0.20945106
00000000: 5f2b 493e 5f60 12bf 2526 22bf 219e 4d3f
00000010: 4ff6 953e 2f2d 1a3f e45d 0d3e 6ac2 d9bd
00000020: f9f0 17bf 577a 56be
