model_int8.pth (torch, 83263 bytes, 4 tensors)

feature1.0.bias f4 [64]
0	0xbd096df8	-0.03355214
1	0xbdb3ca0c	-0.08778772
2	0xbd84520e	-0.06460963
3	0xbd503fca	-0.050842084
4	0xbf6ad4f8	-0.91731215
5	0x3d328c62	0.04359091
6	0x3de6a242	0.11261417
7	0x3dafa193	0.0857574
8	0xbdbfa163	-0.09356954
9	0xbdced67c	-0.100995034
10	0xbc089734	-0.008336831
11	0xbf70608f	-0.93897337
12	0xbeb1ec3c	-0.34750545
13	0x3d9af2e1	0.07565857
14	0xbe94c42c	-0.29055917
15	0xbee264e4	-0.44217598
16	0x3c209660	0.009801477
17	0xbf685967	-0.9076142
18	0x3d1bee54	0.038069084
19	0xbea98451	-0.33108762
20	0x3de7019f	0.11279606
21	0x3e677b54	0.2260564
22	0x3ec23e68	0.37938237
23	0xbf70a43f	-0.9400062
24	0xbf3c2755	-0.73497516
25	0x3e19bffe	0.15014645
26	0xbefe7650	-0.4969964
27	0x3e45cdda	0.19316807
28	0x3c0987f8	0.008394234
29	0x3e0be433	0.1366127
30	0xbf5f471d	-0.87217885
31	0xbec5b900	-0.38617706
32	0x3d97155b	0.0737712
33	0x3f3b5124	0.73170686
34	0xbe8dfc6b	-0.27731642
35	0xbb91aee8	-0.0044458993
36	0x3d07772c	0.033072636
37	0xbd7df65c	-0.062002525
38	0xbe0ef6ab	-0.13961284
39	0x3d34d032	0.044143863
40	0xbe1c1bee	-0.1524503
41	0x3d472081	0.048614983
42	0x3e507dbf	0.20360468
43	0xbca855b8	-0.020548686
44	0xbf84ad24	-1.0365338
45	0xbd320374	-0.043460324
46	0xbcc36d9a	-0.023855973
47	0xbd612aac	-0.054972336
48	0x3cdfd66f	0.02732393
49	0xbf156f65	-0.583731
50	0x3ca7eb20	0.020497859
51	0xbee749c0	-0.45173454
52	0x3f168403	0.58795184
53	0xbd56606c	-0.05233805
54	0x3b300ac6	0.002686189
55	0xbe234f0e	-0.15948126
56	0xbbc43d9a	-0.005988789
57	0xbbdcf122	-0.0067426125
58	0x3e950e73	0.29112586
59	0x3e3f7892	0.18698338
60	0xbbe21318	-0.006899249
61	0xbf015148	-0.5051465
62	0xbfa2237a	-1.2667077
63	0xbf0c91da	-0.5491005

feature2.0.bias f4 [64]
0	0x3e1866b0	0.14882922
1	0x3df8ebd0	0.12154353
2	0x3e0e4c6a	0.13896337
3	0x3edc8478	0.43069816
4	0x3e678112	0.2260783
5	0x3e6684b0	0.22511554
6	0x3f3310ba	0.699474
7	0x3fa64110	1.2988605
8	0xbfb9d25e	-1.4517324
9	0x3efead12	0.49741417
10	0x3ee5809a	0.44824678
11	0x3fa44860	1.2834587
12	0x3e508084	0.20361525
13	0x3e0cb20e	0.13739797
14	0x3f555168	0.8332734
15	0x3f58153d	0.8440741
16	0x3eda5cfc	0.42649066
17	0x3eedb86c	0.46429765
18	0xbd9f3090	-0.077729344
19	0x3f0aadfa	0.5417172
20	0x3ec526aa	0.3850606
21	0x3fa0e175	1.2568804
22	0x3f2231fb	0.63357514
23	0xbe932f23	-0.287469
24	0x3ec4038e	0.38283962
25	0x3f41626d	0.7554081
26	0x3f12dfa9	0.5737253
27	0x3e1d9f3a	0.15392771
28	0x3f32a746	0.6978649
29	0x3ea2ba06	0.3178255
30	0x3f846b1a	1.0345185
31	0xbd212340	-0.039340258
32	0x3ea986fc	0.33110797
33	0x3f216fef	0.6306142
34	0x3efd1de6	0.49436873
35	0x3ebb92d4	0.36635458
36	0xbd8325be	-0.06403683
37	0x3ece8f04	0.40343487
38	0x3e68e32c	0.22742909
39	0x3ef99118	0.4874351
40	0x3d9fce60	0.07803035
41	0xbf0f3587	-0.5594105
42	0x3e0cc9ec	0.13748902
43	0xbea2b064	-0.317752
44	0x3f2e4bf2	0.68084633
45	0x3f1aa0f4	0.60401845
46	0x3ecf3cd4	0.40476096
47	0x3f845446	1.0338218
48	0x3d165890	0.036705554
49	0xbf0b1188	-0.54323626
50	0xbdaf46e0	-0.0855844
51	0x3e24e238	0.1610192
52	0xbea8bc68	-0.32956243
53	0x3ece5160	0.4029646
54	0x3f8553f8	1.041625
55	0x3e1feea8	0.15618384
56	0x3f3502cf	0.7070741
57	0xbd0b6720	-0.034033895
58	0x3f3a8e5d	0.7287348
59	0x3e678e0c	0.2261278
60	0x3f8d7134	1.1050172
61	0x3f015ba8	0.5053048
62	0x3e8133b6	0.25234765
63	0x3e5b11cc	0.21393508

feature3.0.bias f4 [64]
0	0x3e93a70c	0.28838384
1	0xbfa5a1d8	-1.2940016
2	0x3f0cc534	0.5498841
3	0x3f3b8df0	0.73263454
4	0x3f13eece	0.5778626
5	0x3e840f58	0.25792956
6	0x3f5edbe4	0.87054276
7	0x3f9030ab	1.1264852
8	0xbfa05fc2	-1.2529223
9	0x3f33b524	0.70198274
10	0x3fb75860	1.4323845
11	0x3fb307c9	1.3986751
12	0x3ff41e06	1.9071662
13	0x3ebbdb4c	0.36690748
14	0x3f4e98e2	0.8070203
15	0x3f6d1582	0.92610943
16	0xbf8c393c	-1.0954967
17	0xbfdde6f1	-1.7336103
18	0x3ec08da8	0.37608075
19	0x3e184948	0.14871705
20	0x3f65287c	0.895149
21	0x3f7ce75c	0.98790526
22	0xbf2ea48e	-0.6821984
23	0xbf577c74	-0.84174275
24	0xbe3a2c44	-0.18180948
25	0x3edd2f08	0.43199944
26	0x3f9edaff	1.2410582
27	0x3eee8ba0	0.465909
28	0x3f595a66	0.8490356
29	0x3f1ee259	0.6206413
30	0x3f07f5a8	0.53109217
31	0x3f40727c	0.7517469
32	0x3fcd3c04	1.603394
33	0xbf4ebd70	-0.8075781
34	0x3ccc0700	0.024905682
35	0x3ecc6824	0.39923203
36	0x40446298	3.0685177
37	0x3f36dad4	0.71427655
38	0x3dc6d498	0.09708518
39	0x3f398c74	0.7247994
40	0x3f867566	1.0504577
41	0x3fe61c54	1.7977395
42	0xbe614528	-0.21999037
43	0xbdc53540	-0.09629297
44	0x3d69bae0	0.057062984
45	0xbde8c5d0	-0.11365855
46	0x3eb23fa0	0.34814167
47	0xbb99e300	-0.00469625
48	0x400b9c84	2.181428
49	0x3fcbe175	1.5928179
50	0x3f7eb084	0.9948809
51	0x400ae49b	2.170203
52	0x3f28de28	0.65963984
53	0x3e39aeb0	0.18133044
54	0x3f57dbe8	0.84319925
55	0x3fdd9ee8	1.7314119
56	0x3f5d5642	0.86459744
57	0x3fc19c87	1.5125893
58	0x3fba7810	1.456789
59	0x3e968c5c	0.2940396
60	0x3f50c81a	0.8155533
61	0x3ec8952c	0.3917631
62	0xbea246d8	-0.31694674
63	0x3fa5f111	1.2964193

cpu f4 [10]
0	0x3e484782	0.19558528
1	0xbf12224a	-0.5708357
2	0xbf21817b	-0.63088197
3	0x3f4e9cc8	0.8070798
4	0x3e9526c6	0.29131144
5	0x3f196abd	0.59928495
6	0x3e0ce6dd	0.13759942
7	0xbddad78c	-0.106856436
8	0xbf1799ba	-0.59218943
9	0xbe58e445	-0.21180828
