model_best.pth.tar (torch, 627807 bytes, 34 tensors)

feature1.0.weight f4 [64, 3, 3, 3]
00000000: 2545 083f beef 83bf f793 ae3e c8d5 d83e
00000010: 976f bdbf c246 5d3f 3090 d63d 9898 19bf
00000020: 16a0 623f 3a24 423f b087 6ebf 95f2 bd3e
00000030: 928a 303f c662 b3bf 6eda 323f e8df 4b3e
00000040: 7d1f 4abf 89d7 113f 6541 383f e71d 4cbf
00000050: 95cc ae3d 79a6 293f b07e 91bf fd89 d33e
00000060: cbad 993e ea72 21bf dc7f b03e 2d39 98be
00000070: c315 25bf 16a3 76bd c47f f43e fba7 553f
00000080: 5927 0b3f c494 60be ef11 0dbf c37c f0be
00000090: 7990 f6bd 14f7 d9be a2b8 7b3c bf11 e23e
000000a0: 9d0b 5e3f 3eb5 c43e 1b71 09be e354 17bf
000000b0: 7754 30bf 9a4c 30be 0b1c debe 0c58 623d
000000c0: 6dc9 9f3e 8912 203f c84d b13e 6035 73be
000000d0: a860 c9be 70fe cfbe 6061 ebbe 1303 203f
000000e0: 1327 11be d26d 73bf f827 8e3f 9412 d6be
000000f0: abfa 34bf eb54 a03f a322 a0be 62aa f3bd
00000100: 32a8 013f c15a b0be d321 fbbe 60cd 883f
00000110: 2d03 4ebf 1ac2 bebe d565 993f 57f4 40bf
00000120: 447b e4bd ad65 ce3e 3667 5abe 6e63 d8be
00000130: 5a28 663f 4549 0dbf f57a cebe 6bfc 853f
00000140: 07cc 29bf 8ff2 1fbf 26e6 23bf e1cf a93d
00000150: 2f16 0e3f 1f5f bfbe ab33 25bf 231f 013f
00000160: 8d6f 3f3f 6f8d cf3e 6c5f acbe c7b0 13bf
00000170: ed1d 7a3e 8f81 103f 13f6 8cbe 2344 f5be
00000180: 843f 983e bee4 283f 040a 4a3e a158 f7be
00000190: 3406 e7be 3709 3a3e 6f8b bb3e a5f9 bdbe
000001a0: 3b1d 08bf 0cb0 213d 38c9 093f a4ac 863e
000001b0: 8754 ad3e 7592 f8bc 6cea 943d 042c be3e
000001c0: 1e13 573e 979d 3d3c 4bbe 03be 426b 763d
000001d0: f610 153e a82a c63c 0eb0 19bf ad5e bebe
000001e0: 30dd d9bd ae94 bfbe 306a 66be b6eb 07be
000001f0: 1c65 703d 539d e4bc be54 22be 553e 13bf
00000200: 1d49 a1be 44bf a93e 031a 5fbe 3998 24be
00000210: c724 f93e 9988 133f 837e 0d3f afed 8e3f
00000220: c360 7bbf 3696 33be 84f0 4bbf 313a 40bf
00000230: aac2 953f 17c8 b6be 6519 b63f 984c 1cbf
00000240: f822 863f 24f2 4ebf b3c8 51bd 053b 2cbf
00000250: b20c dabe 9730 8b3f 7117 0dbf 24b4 b23f
00000260: b668 89bf f529 853f 756c 3dbf 8343 3fbe
00000270: 033a 04bf e555 ecbe cf31 6d3f 09fc 9ebe
00000280: 149a 9b3f 4cb1 7ebf f340 0cbf 3ce0 62be
00000290: f4ca 1cbf 62cf 1abe f9ff 97bd 261e 20be
000002a0: ba5b 02bf 0d75 30bf 15f2 43be 055d 133f
000002b0: 398f 593f 1177 833e cc85 843f 97ef a63f
000002c0: 8b67 613f 9ffb aa3e 938f 143e 7d8a 243f
000002d0: c8ff c0be e43f 52be 5881 d7be bb03 8bbe
000002e0: a798 a6be 31f4 cbb9 c041 a9be 1f4e 40bf
000002f0: 0ab3 8ebd b5cb 8cbe 9890 d4bd 4ad9 cdbd
00000300: 236d 7fbe 6d41 23be 4026 913c 6cec e0be
00000310: b52d 85be aa0a e2bd fc8e 293c 6422 1dbe
00000320: d4df 5bbd f0b2 bbbd 4535 c13d 15af a3bd
00000330: 9de9 77bd a0b7 d8bd 509c 0fbe 25d3 033e
00000340: fb4d 403e 6b53 003e f31f be3e a549 c73e
00000350: 5227 0a3e 236e be3e 04da c63e e732 883e
00000360: 6a93 7f3e d010 61bf da8d 94be 6c38 613f
00000370: a813 823f e6c2 74be e027 5dbf c5bd e73d
00000380: 81dd 913e a78e 2d3d 4286 66bf 556c e1bd
00000390: 4554 543f 8e32 8a3f 625a aebe 89b9 7bbf
000003a0: f53e 6f3d 99cd 913d 1f68 163d a4e1 48bf
000003b0: 9338 fbbd e7fd 383f 13f5 633f 9080 acbe
000003c0: 8741 53bf 5064 02bd c4d9 863e 70b2 cfbe
000003d0: 2f6f d3be 8b5f 73be b1df 26bf 7763 14bf
000003e0: f78d 84be 0e48 1b3f 0c85 4d3f 05f9 453f
000003f0: 43be 773d afc7 033e 74c3 693d 1526 67be
0.53230506 -1.0307539 0.34097263 0.42350602 -1.479968 0.8643609 0.1047672 -0.59998465
0.8852552 0.7583653 -0.9317579 0.37099138 0.6896144 -1.4014518 0.6986455 0.19909632
-0.789543 0.56969506 0.71974784 -0.7973313 0.08535115 0.6626964 -1.1366787 0.41316214
0.30015406 -0.6306597 0.3447255 -0.29731122 -0.6448633 -0.060214125 0.47753727 0.8345944
0.54356915 -0.2193175 -0.5510549 -0.46970186 -0.12039275 -0.42571318 0.015363844 0.44154164
0.8673647 0.38419527 -0.13422053 -0.591139 -0.68878883 -0.17216721 -0.4338077 0.05525975
0.31208363 0.6252828 0.34629655 -0.2375083 -0.39331555 -0.40623808 -0.4597273 0.6250469
-0.14175062 -0.9508945 1.1105947 -0.4181105 -0.7069499 1.2525915 -0.31276426 -0.11897732
0.5064727 -0.3444424 -0.49049243 1.0687675 -0.80473596 -0.37257463 1.1984202 -0.75372833
-0.111563236 0.40311947 -0.21328434 -0.4226336 0.8990532 -0.55189925 -0.40328184 1.0467657
-0.66326946 -0.6247949 -0.64023054 0.08291603 0.555026 -0.3737726 -0.64531964 0.50438136
0.7477959 0.40537593 -0.3366655 -0.57691616 0.24425478 0.5644769 -0.2753149 -0.47903547
0.2973596 0.6597403 0.19730383 -0.48309806 -0.4512192 0.18167578 0.36629817 -0.37104526
-0.531696 0.039474532 0.5382266 0.2630359 0.33853552 -0.030343274 0.07271275 0.37142956
0.21003386 0.011573217 -0.1286556 0.060160883 0.14557251 0.024190262 -0.60034263 -0.37181607
-0.10637891 -0.3741812 -0.22501445 -0.1327351 0.058690175 -0.02790705 -0.15852639 -0.57516986
-0.31501094 0.33153737 -0.21787266 -0.16073693 0.4866087 0.57630306 0.55271167 1.1166285
-0.9819452 -0.1753777 -0.7966387 -0.75088793 1.1700032 -0.3569953 1.42265 -0.6105437
1.0479422 -0.8083823 -0.051216792 -0.67277557 -0.4258781 1.0874203 -0.55113894 1.3961225
-1.073508 1.0403429 -0.7399362 -0.18678097 -0.5165102 -0.46159282 0.92654127 -0.31051663
1.2156396 -0.99489284 -0.54786605 -0.22155851 -0.6124718 -0.15118173 -0.0742187 -0.156365
-0.50921214 -0.68928605 -0.19135316 0.5756381 0.84984165 0.25676778 1.0353332 1.3041867
0.8804862 0.33395097 0.14507894 0.64273816 -0.37695146 -0.20532185 -0.4209087 -0.27151284
-0.3253834 -0.00038901114 -0.33057976 -0.75119203 -0.06967743 -0.27499166 -0.103791416 -0.1005121
-0.24943976 -0.15942927 0.017718434 -0.43930376 -0.26011434 -0.1103719 0.010349032 -0.1534515
-0.053680256 -0.09164989 0.094339885 -0.079923786 -0.060525525 -0.10581899 -0.14024472 0.12873514
0.18779747 0.12531821 0.3713375 0.38923374 0.13491562 0.37193403 0.38838208 0.26601335
0.24958578 -0.8791628 -0.29014474 0.8797672 1.0162249 -0.23902473 -0.8638897 0.113154925
0.28489307 0.042372372 -0.9004861 -0.11006991 0.82941085 1.0796678 -0.34053332 -0.9832998
0.05840965 0.07119293 0.03672039 -0.784693 -0.1226665 0.72262424 0.8904583 -0.33691835
-0.8252186 -0.031833947 0.26338017 -0.40565825 -0.41295764 -0.23766916 -0.65185076 -0.5796427
-0.2588956 0.6065682 0.8028114 0.773331 0.060484182 0.12869142 0.057071164 -0.22573121

feature1.0.bias f4 [64]
00000000: 70f6 ab3c 2582 c0bd e872 46bd 96df b03d
00000010: c624 2bbd fc18 06bd deed 503d 3ab4 ebbc
00000020: 9fd2 883c 52c8 e8bd af9c 843d 1630 cfbd
00000030: 9933 783c 2713 e7bd 82e6 c7bd c85f bb3d
00000040: 4441 80bd 159f 80bb 8002 a63b ed4d d63d
00000050: fab3 143d 725f 633d 4547 47bd 6ab9 1fbd
00000060: 096c a93d 07c5 2a3d 89a3 e93c dc9f afbd
00000070: 89e2 b9bd 7a1b bc3c 88ca aebd cf49 a33d
00000080: 1710 c23d 0ce9 40bd 181c 96bd 5974 e13d
00000090: 2188 78bd 2da2 b9bd 080b a9bd 74d3 a13c
000000a0: f4e9 b43c 4f63 963d 0b8f bb3d d0a7 463d
000000b0: 39fc 843c bb59 d23d 3c39 40bd 285d a3bc
000000c0: 6738 c53d f6c9 1cbd cfbd 793d dccb c73c
000000d0: 3b6a 243d 2e01 d5bc 7c5e c6bd bf03 a73d
000000e0: babf bf3d 95f3 b8bd f802 5abd cf0c 9e3b
000000f0: f2cc 663d 98da 83bc bb3b 4cbd 763d b53d
0.020991534 -0.09399823 -0.048449427 0.08636396 -0.041783117 -0.03273867 0.051008098 -0.028772462
0.016701994 -0.11366333 0.064751975 -0.101165935 0.015149021 -0.1128295 -0.09760763 0.09149128
-0.062624484 -0.003925214 0.005066216 0.10464082 0.03630445 0.055510946 -0.048651952 -0.038995184
0.08272559 0.041691806 0.028520362 -0.08575413 -0.09076411 0.02296232 -0.085347235 0.07973062
0.09475725 -0.04709725 -0.07329577 0.1100852 -0.060676698 -0.09064136 -0.08254057 0.019754149
0.022084214 0.0734316 0.09158143 0.048499882 0.01623355 0.10271021 -0.046929583 -0.019941881
0.096298985 -0.038278542 0.06097203 0.0243892 0.04014037 -0.02600154 -0.0968599 0.081550114
0.09362741 -0.090308346 -0.053225487 0.0048233042 0.056347795 -0.016095445 -0.04986165 0.08849613

feature1.1.weight f4 [64]
00000000: cc8b 973f 2765 5b3f 1c0f ae3f d52a 823f
00000010: 19d7 933f c796 693f 58b4 493f 1458 e93e
00000020: 8104 893f 7c1d 603f fd74 6a3f fd5d 913f
00000030: 2c3e 283f e490 613f c4d8 3d3f 9ebc 473f
00000040: 1491 413f b097 823f 6777 323f 961b 7b3f
00000050: 14b5 623f 8702 263f cc6b 043f 48ae 853f
00000060: 15a9 9e3f 57e5 653f fc98 ea3e c3a9 cc3e
00000070: f241 b73f cd0f 153f 01da 5d3f 842e 1f3f
00000080: c32e 683f 132b 123f a52e 443f 1bbd 823f
00000090: 9fb5 7f3f 0f36 673f a095 6a3f 476e b53f
000000a0: 1e10 8e3f 967c 573f cc14 3f3f b33e 173f
000000b0: b3b9 803f a4ee 5d3f 0b44 4c3f 3276 1c3f
000000c0: b750 623f 6010 863f 8725 253f 32d7 863f
000000d0: 7e9c 023f d333 aa3f 87f3 813f 7ee6 783f
000000e0: de84 2a3f 7d8b 8c3f 676c 4f3f c988 3e3f
000000f0: c430 b43f 048c 7a3f bb6e a33f 1a5c 8a3f
1.1839538 0.8570122 1.3598361 1.0169321 1.1550018 0.9124569 0.7879081 0.4557501
1.07045 0.8754499 0.9158476 1.1356808 0.65719867 0.8811171 0.74158883 0.7802218
0.75611997 1.0202541 0.69713444 0.9808897 0.88557553 0.64847606 0.51726985 1.0443811
1.239535 0.8980307 0.45819843 0.39973268 1.4317 0.58227235 0.8666077 0.6218035
0.9069635 0.57096976 0.76633674 1.021396 0.99886507 0.9031686 0.9163456 1.4174279
1.1098669 0.8417448 0.7464111 0.59080046 1.0056671 0.8669226 0.79791325 0.6111785
0.8840441 1.0473747 0.6451039 1.0534422 0.5102004 1.3297065 1.0152444 0.97226703
0.6660899 1.0980068 0.81024784 0.7442747 1.4077382 0.97869897 1.2768167 1.0809357

feature1.1.bias f4 [64]
00000000: 8db9 9fbd 1863 6d3d ac69 78bc 92b3 00bd
00000010: 826e 69bf d56d 6c3d cd6e 483e 0ed6 73bd
00000020: 03f9 e2bc 5f95 05be 121b 243d 0d4e 2fbf
00000030: 91a9 01bf fcc0 e03d fa94 01bf 8a5c 91be
00000040: 8385 50be 8fe3 62bf 276f f23d a8cc 9dbe
00000050: fb30 453e a37f 543e 9526 6f3e 2a3e 26bf
00000060: 215d 15bf 1913 253e 2c92 b4be 15f0 9d3d
00000070: 9fcf 9bbd d5bb 5a3c e3e9 5dbf 4b5e 15bf
00000080: 690f 103e be1d 033f a11a 06bf 5f83 ba3c
00000090: 691b 2c3d 5173 203e 7e1e fdbd eafc 0fbd
000000a0: 4e23 0cbe a659 493d afaf 3e3e 0a96 7cbd
000000b0: 65f8 44bf b6be 32bd a39d 80bc d1d7 89be
000000c0: eb75 483d c733 c1be a431 2abe 5032 eabe
000000d0: d4ba c33e 39e0 f1bc d784 86ba da53 38be
000000e0: c18e 693b 4d97 143c 2fc7 b23d 1423 4c3e
000000f0: 367e e0bc 765d 25bf 1085 45bf 94b3 d3be
-0.07799063 0.05795583 -0.015161913 -0.03142125 -0.91184247 0.05772193 0.19573517 -0.05953031
-0.027706629 -0.13045262 0.04006488 -0.6847847 -0.5064936 0.10974309 -0.50617945 -0.28390914
-0.2036343 -0.88628477 0.11837607 -0.30820203 0.19256966 0.20751815 0.23354562 -0.64938605
-0.5834523 0.16120566 -0.3526777 0.07711808 -0.0760796 0.013350447 -0.8668501 -0.58347005
0.14068379 0.5121726 -0.5238438 0.02276772 0.042018328 0.1566899 -0.123593315 -0.035153307
-0.13685343 0.04915776 0.18621705 -0.061666526 -0.7694152 -0.043638907 -0.015700167 -0.26922467
0.04894058 -0.37734815 -0.16620499 -0.4574151 0.38228476 -0.029525863 -0.0010262978 -0.18000737
0.0035638066 0.009069276 0.087293975 0.19935256 -0.027403932 -0.64595735 -0.7715616 -0.41347945

feature1.1.running_mean f4 [64]
00000000: 627e f7bc f440 813d 12d2 51bb e2d6 e03d
00000010: 3094 1dbd 16ca bfbc 0799 0c3e 6f42 69be
00000020: 76ac 913d 4128 09be c557 023e 53fe b33d
00000030: 8511 e9bd 3919 a5bd 609f 50be 1541 623e
00000040: 30ca 7cbe a1ad 323c f3e9 a33d 9091 e23d
00000050: 7d4c fc3d 73ee 053d c2df 6dbe a916 5c3e
00000060: bd6a 473e b100 583d 587c 3b3e 1dc5 acbe
00000070: e368 35be 0445 2abe 6429 a8bd c28d 56be
00000080: 2f30 273e 029d 8fbe 3c8b 92be f92d 1a3e
00000090: a231 5abd d60e be3d 3654 97bd b8cc 6abd
000000a0: 8bb0 ef3c 7825 973d fc8c 973d 6504 9c3c
000000b0: 44de 4a3e fde2 d13d 4172 10bd 32db 66be
000000c0: 054a 063e 7794 df3d fe40 f0bd 1c2c aa3c
000000d0: 2260 9cbe 096a ad3b f9da cebd 42c6 863d
000000e0: a319 dd3d c61d 99bd 3016 8cbe fc84 b63c
000000f0: 31e9 dd3c 9320 1fbe ec0d cc3e 457b 0f3e
-0.030211631 0.06311217 -0.003201608 0.10978486 -0.0384714 -0.023411792 0.1373025 -0.22779249
0.071129724 -0.13394262 0.12728794 0.08788743 -0.11380295 -0.080614515 -0.20373297 0.2209514
-0.24686503 0.010905654 0.08003607 0.1106292 0.123192765 0.032698106 -0.23229888 0.21493019
0.19474311 0.052735034 0.18309152 -0.33744135 -0.17715792 -0.1662789 -0.0821102 -0.20952514
0.16326974 -0.28049475 -0.28621852 0.150566 -0.05326999 0.092801735 -0.07389109 -0.05732414
0.029258987 0.073801935 0.073999375 0.019045064 0.1981135 0.10248373 -0.03526521 -0.22544554
0.13114174 0.10916989 -0.11731146 0.020772986 -0.30542094 0.0052921814 -0.101003595 0.065807834
0.107959054 -0.07476382 -0.27360678 0.022280209 0.027088733 -0.1553977 0.39854372 0.14011867

feature1.1.running_var f4 [64]
00000000: aa34 ee3f 867e 5a3f cc30 c63f 9b83 c03f
00000010: c462 fa3e cbb2 b93e de49 2b3f 648c c73e
00000020: 1552 483f 1cf7 b93e dc38 b33f 97a4 363f
00000030: 6678 913e e48a 313f 7c69 083e 088a d03e
00000040: 5e1c da3e 11d5 003f 9cd9 d83e 5fe5 863d
00000050: 0f2c 6e3f 3805 233f d83b d93e f629 553f
00000060: 0bf7 563f d9da 4d3f bb9a 763e 7666 403f
00000070: 2437 0940 e093 4c3f 96e2 8d3e 8cc1 543f
00000080: eac4 5c3f 1ca8 bc3e a74a e03e e7bc 1340
00000090: ea17 2f3f a3ed 123f 88a8 7a3e 23f9 f23f
000000a0: a474 853e a8de a83e 7dd4 113f 8167 373e
000000b0: dc10 f03e abb8 9a3f 5eb0 a63f 62f2 af3e
000000c0: 01f3 0140 3857 0f3f d648 c23e 0e41 e63e
000000d0: dc1e 3c3f 5cf2 5440 db5b a43f e256 0e3f
000000e0: 22a7 7f3f b124 953f e275 443f ac3a 8d3f
000000f0: c61f 8140 47fb 6f3f 8e22 ab3f fc56 2d3e
1.8609822 0.8534931 1.5483642 1.5040163 0.48903477 0.3626922 0.6690959 0.38974297
0.7825025 0.36321342 1.4001727 0.71344894 0.2841217 0.69352555 0.13321489 0.4073031
0.42599767 0.50325114 0.42353523 0.06586718 0.9303598 0.6367984 0.4242847 0.8326715
0.8397071 0.8041206 0.24082462 0.75156343 2.1439905 0.7991314 0.27711934 0.8310783
0.86237967 0.36847007 0.43806955 2.3084047 0.68395865 0.57393855 0.24478352 1.898228
0.26065552 0.32982373 0.56964856 0.17910577 0.46887863 1.2087606 1.3022573 0.3436461
2.0304568 0.5599246 0.37946194 0.44971508 0.7348459 3.3272924 1.2840532 0.5560132
0.998644 1.1651822 0.76742375 1.103353 4.0351286 0.93742794 1.336992 0.16927713

feature2.0.weight f4 [64, 64, 3, 3]
00000000: fb9f e3bd 834f 48bd 4143 26be 22a2 363e
00000010: 2166 5f3d 1b1d abbd 4574 463c ae64 e13b
00000020: 6aa5 ff3d 73fb 013d 0364 ef3d 6462 58be
00000030: 3e90 b4bd 1607 cebd 828d 4fbd f308 36bd
00000040: 241c a93c 4ed9 ed3d b122 043e 6435 4cbd
00000050: 573f 44bd e1ac 963c 80c2 a93c c59d 8dbc
00000060: eb3a 10be 8649 3c3e 96ec 813c 3e4b 6fbe
00000070: c28c 2d3e 2556 adbc 0adc 54be 87f3 813c
00000080: 34bd 8bbc de1e 253e e29c 76be a27a bcbd
00000090: c2ba abbd 08df 483d 7412 41bd f39b 09be
000000a0: aaa5 17be 0cb8 443d 6685 0cbd d4ef 93be
000000b0: e33f 0b3d ef37 3d3e 1dd2 183e 5be6 febd
000000c0: 4c37 153e f03b cd3d 370c ad3c 08b6 a1bd
000000d0: 1d65 ee3c 59c4 ff3d fd2f b6bc d555 933e
000000e0: 883e 0fbe ac67 533d 5a21 6f3d ca5f 493d
000000f0: ae04 063e 7603 9cbd 86ef 9ebd b6ba 573d
00000100: 0df3 4f3d e82d ae3d 056f 2c3b e931 b6bd
00000110: 3ad2 2b3c f74d 40bc 4e6d 8abd ded6 9fbd
00000120: 4775 a8be 13ca 063e c3a2 10be 819c 15be
00000130: 48c6 7ebd 901c aabd 8f99 503e 5384 81bd
00000140: 8500 4cbe cb7a f0bb a90a 4d3b e010 0cbe
00000150: 5f24 90bd 82e2 4dbe 982d d3bd 909a cbbc
00000160: 898e e8bd ab08 933d 88ba 0dbd e99c 403e
00000170: ae64 82be 3274 343d 03a1 5ebe e490 41be
00000180: 5a24 89bb e5ec bfbd 0737 ce3b bd7e b7bd
00000190: 67cc 87bd cf54 96bb a336 cbbd ed09 e9bd
000001a0: 0b13 bcbc 6cb1 73bd 8451 28be 6412 d73d
000001b0: f148 f6bc 5514 3a3d 7853 ac3d 3839 aabd
000001c0: 8988 85bd a842 033d 86d4 fcbd 08ea f4bc
000001d0: b5f6 b63b ab07 ec3d 2b38 88bd a083 edbd
000001e0: f478 bc3e b088 833d 566e 67be bba5 863e
000001f0: 1591 2b3d d773 20be b4ad a0bd 250d 443d
00000200: 63c1 843c d090 3dbe 4a3c ebbd 6624 e03c
00000210: 2257 94bd abc9 b3bd f113 42bc 98ff 08be
00000220: 5b1c cf3d 33fc 3c3d ea5d 2fbe 35bb 973d
00000230: f8eb 8a3d f28c 0d3d c232 e0bc d9c7 1ebd
00000240: 502f 7b3d d8d8 5a3d be41 543d 5a43 e8bd
00000250: 2e37 fbbd 654b c4bc fc0f d4bd 047e a9bd
00000260: a988 adbd 4d0d 7cbe 4deb 29be 129d 3dbd
00000270: 15bf 0dbe c38a 65be 3b65 46bc 79c6 4bbd
00000280: 6aad 80be c840 6cbc d04b 913d 8663 603d
00000290: 339e 32bd 5d9c e23c 4346 16be 1835 72bc
000002a0: 36ac b7bd fb41 a2bd e61a 853d d597 cbbd
000002b0: 9b2c 01bd 093b adbc d46f 86bc 2b72 5dbd
000002c0: b5a7 47bd 9558 653d 92fd b8bd 2ad7 e3bd
000002d0: ccaa 0ebe eff2 d33d f8d2 5ebd bec5 fabc
000002e0: 5728 893e 8981 803d 1b15 ed3d 0d4e 3c3e
000002f0: 6a42 e33d e3b0 583d 52f4 ea3c ee7a 32bd
00000300: 3731 223b 1eb3 813d 470e 953b b5c6 253d
00000310: 5182 c03d b546 a83c 3604 a4bd d218 f7bc
00000320: 8235 0dbd 4237 cfbd f3ca 1ebe 918b 4fbc
00000330: deee b6bd 413e d1bd cb50 1f3b 6393 b7ba
00000340: e224 063e 2999 943e 43cb 62bd 4c1b 3bbe
00000350: 8a27 433e 9640 14be 54fb c8be 18bc f53c
00000360: 19df 89bd a7fe 983b 1871 52bd baa9 05be
00000370: f6f1 83bd bf6a e8bd 6e52 16bd ea51 b3bd
00000380: 7433 cc3d 87e4 8dbe cd45 d43d 9f4b 093e
00000390: cf46 63be fb87 a53d 4ece 243e b787 43be
000003a0: 892b ebbb f13f 743e 7a4d c4bd f8fd 853c
000003b0: d83d 023d 2f47 81bd 2122 43bd ebaa bc3d
000003c0: df23 36bb c6ee 9ebd 5e73 093d 86e1 cabd
000003d0: 1a52 e5bb 82a9 6e3c 7a91 01be 94f3 c1bd
000003e0: ac02 5abd 0b3b cbbd d9fe b7bd e345 3abb
000003f0: b878 20be 1ca8 cd3c b41d a13c 9d14 143e
-0.11114498 -0.048903953 -0.16236593 0.17835286 0.054540757 -0.08355161 0.012112682 0.006878457
0.12482722 0.03173394 0.116889976 -0.21131283 -0.088165745 -0.10059945 -0.05067206 -0.04444213
0.020643301 0.11613713 0.12903859 -0.049855605 -0.047911968 0.018392982 0.020722628 -0.017287144
-0.14084975 0.18387422 0.015859883 -0.23368546 0.16948226 -0.021159241 -0.20787063 0.015863193
-0.017057993 0.16125056 -0.24083284 -0.09203078 -0.083852306 0.049040824 -0.04713674 -0.13438396
-0.1480929 0.048027083 -0.034306906 -0.28893912 0.033996474 0.18478368 0.14923902 -0.124462806
0.14571875 0.10021198 0.021123989 -0.07896048 0.029100949 0.12488622 -0.02223968 0.28776422
-0.13988698 0.05161254 0.058381416 0.049163617 0.13087723 -0.076178476 -0.07760529 0.052668296
0.0507689 0.0850485 0.002631129 -0.08896238 0.010487134 -0.011737338 -0.067591295 -0.078046545
-0.32901976 0.13163023 -0.14124589 -0.14610483 -0.062200814 -0.08306229 0.20371078 -0.06324067
-0.19922073 -0.007338857 0.0031286872 -0.13678312 -0.07038187 -0.20105937 -0.10311431 -0.024853975
-0.113553114 0.07179388 -0.03460172 0.18809856 -0.25467438 0.044056125 -0.21741109 -0.18902928
-0.0041852416 -0.09371356 0.006293181 -0.0895972 -0.066307835 -0.0045877467 -0.099225305 -0.11378846
-0.0229583 -0.059495375 -0.16437346 0.105015546 -0.030064078 0.045429546 0.08414358 -0.08311695
-0.06520183 0.03204599 -0.12345223 -0.029896751 0.005583609 0.115249 -0.06651338 -0.11597371
0.3681103 0.064225554 -0.22600684 0.26298317 0.041886408 -0.1566919 -0.07845631 0.047864098
0.016205495 -0.18512273 -0.114861086 0.027361106 -0.07243182 -0.087786995 -0.011845575 -0.13378751
0.1011283 0.046138953 -0.17125669 0.07408754 0.06783289 0.034558244 -0.027367953 -0.03876481
0.061324418 0.053429455 0.05182051 -0.11340971 -0.12266384 -0.023961732 -0.10354611 -0.08275989
-0.084733315 -0.24614449 -0.16593666 -0.046292372 -0.13842423 -0.22416215 -0.012109096 -0.049749825
-0.25132304 -0.014419742 0.07094538 0.054782413 -0.0436079 0.02766245 -0.1467524 -0.014783166
-0.089683935 -0.07922741 0.06499271 -0.09941069 -0.03153668 -0.021146314 -0.016410746 -0.054063957
-0.048743922 0.05599268 -0.0903274 -0.11125024 -0.13932341 0.1034907 -0.054400414 -0.030611869
0.2678859 0.06274707 0.11576291 0.18389149 0.11096652 0.052903067 0.028680954 -0.043574266
0.0024748573 0.06332992 0.004548821 0.040472705 0.09399856 0.020541528 -0.08008616 -0.030163202
-0.034474857 -0.101179615 -0.15507106 -0.012667553 -0.08932279 -0.10216952 0.002430963 -0.0014005717
0.13100007 0.29023102 -0.055369627 -0.18272132 0.19058052 -0.14477763 -0.39254248 0.029996917
-0.067320056 0.004669029 -0.051377386 -0.13053027 -0.06442635 -0.11348485 -0.036699705 -0.08755858
0.099707514 -0.27713415 0.10364876 0.13407753 -0.2219498 0.08082577 0.16094324 -0.1909474
-0.0071768207 0.23852517 -0.0958509 0.016356453 0.03179726 -0.06312405 -0.04763997 0.092122875
-0.0027792377 -0.07760386 0.03355729 -0.099062964 -0.0069983127 0.014566781 -0.12653151 -0.09470287
-0.053225204 -0.09923371 -0.08984155 -0.0028423003 -0.1567105 0.025104575 0.019667484 0.14460988

feature2.0.bias f4 [64]
00000000: 1e4b 8a38 3b52 933c b1ce 9d3c 67dd c83c
00000010: ee63 21bc fcf4 873c 2b25 ddbb fc97 29bc
00000020: 4bd7 a93c f86e 7cbc be93 41bc 8e3d 6b3c
00000030: bc7a c83c 7d2e abbc f75d 80bc ea92 1b3c
00000040: 3b23 6a3c 63cb 743c 7690 b13b fe67 163a
00000050: d634 bf3c 7063 113a 9329 57ba 0319 acbb
00000060: c17b be3c 6350 3abc dddd efbb 4799 813c
00000070: e9a2 c73c 1b0a 903c c208 973a 3e07 c2bc
00000080: 0da7 babc 1c48 223c a498 b73c b75c 6dbc
00000090: 932c 62bc 3a12 a33c 7177 86bc d157 653c
000000a0: 0596 673a 4414 c0bc 07fa 0bbc d131 163c
000000b0: 18f4 b83c ab4a 3bbc b369 a9b9 ee09 a2bc
000000c0: ae6e 8f3c 3eb8 b03c b47b 0cbc 2445 f63b
000000d0: 5eea 4a3c 1674 b4bc 5d09 af3c a564 3abc
000000e0: 4431 65ba 8e31 b43c e1b9 803c 183e d7bb
000000f0: 50d4 10bc aa6e 3cbc 7595 c93c 5b3d 803c
6.5943444e-05 0.017983546 0.019263597 0.024519635 -0.009850485 0.01659631 -0.0067488155 -0.010351177
0.020732542 -0.015407316 -0.01181501 0.0143579375 0.024472587 -0.02089619 -0.015669806 0.009495476
0.014290626 0.014941069 0.0054188324 0.0005737542 0.023340624 0.00055461284 -0.0008207794 -0.005252005
0.02325237 -0.011371705 -0.0073201493 0.015820159 0.024369674 0.017582944 0.0011522996 -0.023685094
-0.022784734 0.0099048875 0.022411652 -0.014487437 -0.013804573 0.019906152 -0.016414376 0.013997988
0.00088343053 -0.023447163 -0.008543498 0.009167151 0.02257733 -0.011431376 -0.00032312944 -0.019780125
0.01750883 0.021572229 -0.008574415 0.0075155664 0.012384979 -0.02202801 0.02136677 -0.011376535
-0.0008742998 0.021996286 0.015713634 -0.0065686814 -0.008839682 -0.011500994 0.0246074 0.015654257

feature2.1.weight f4 [64]
00000000: d348 ab3f 5470 813f 2ffe 823f 05cf 643f
00000010: c7d9 873f 7b00 843f e5b4 a63f 4d58 d93f
00000020: 2c36 673f 9fe9 3f3f a11c b03f 5529 a43f
00000030: c1b1 853f 56b5 893f 2691 823f d54e a63f
00000040: c54c 9a3f fca5 8f3f db9c 4b3f 6d4b 933f
00000050: 2f84 8c3f 8de4 dc3f fb48 813f c559 633f
00000060: 57cc 683f 1acd 863f d3d2 703f 4a05 623f
00000070: fc29 733f 3168 7c3f 5040 b63f 876c 893f
00000080: 8ab4 8f3f af63 963f fc87 ac3f 2eaa 853f
00000090: 519d 293f 2354 a73f 97e6 603f aa35 a13f
000000a0: 6fd1 4d3f cd32 2d3f 3062 a13f 1f8b 503f
000000b0: db28 b53f 79a0 9f3f 0f9e 7b3f 62d4 b73f
000000c0: 512c 783f 31e8 5b3f f511 613f e80c ac3f
000000d0: e9a6 603f 3cec 703f 162e 8d3f 4d17 ad3f
000000e0: f2a4 393f 56a2 5a3f 4e4a a43f 1a0e 833f
000000f0: 8ebd 943f 3030 5f3f 5812 4b3f adde 333f
1.3381599 1.0112405 1.0233821 0.89378387 1.0613335 1.0312647 1.3023955 1.6980072
0.90317035 0.7496585 1.3758737 1.2825114 1.0444871 1.0758464 1.0200546 1.2992808
1.2054678 1.122253 0.7953622 1.1507393 1.0977839 1.7257248 1.0100397 0.8880885
0.909368 1.0531342 0.9407169 0.8828932 0.9498594 0.98596483 1.4238377 1.0736245
1.1226971 1.1749171 1.3478999 1.044256 0.6625567 1.3072551 0.8785185 1.2594502
0.80397695 0.6765564 1.260809 0.8146228 1.4153093 1.2470847 0.98288053 1.4361689
0.9694262 0.8590117 0.87918025 1.3441439 0.87754685 0.94110465 1.1029689 1.3522736
0.7251731 0.85403955 1.2835176 1.0238678 1.1620347 0.87182903 0.79324865 0.7026165

feature2.1.bias f4 [64]
00000000: 65fe 9ebf 74ed 39bf 192c e8be 568f d5be
00000010: cb22 cdbe b6bd c8be ec34 86bf 9679 abbf
00000020: 162a 6bbf 90cd 35be 811a 57bf 9c19 3bbf
00000030: 09f5 1dbf 8527 99be 8064 01bf 7b87 0fbf
00000040: 5634 29bf 6a2a 27bf 2711 71be e24d 3fbf
00000050: 3bec 3abf 7fb0 87bf 77d8 2bbf 7077 25bf
00000060: f048 0ebf 6283 83be 6f88 0dbf 3e94 9bbe
00000070: 9dbc c1be 290f 20bf ee9a 40bf 3524 0abf
00000080: 19e7 24bf 1d5e 27bf 3d10 73bf 5491 0abf
00000090: 70c2 f5bd 537e 8abf 26ba e8be 8a70 3cbf
000000a0: 2af2 7dbe 90e2 05bf 4921 42bf e1a4 c9be
000000b0: 65ea acbf cafc 41bf 0aa2 4ebf e227 77bf
000000c0: 33a8 1ebf 4dc5 0dbf 2267 5cbf 9a00 4bbf
000000d0: 1330 1bbf 9e91 01bf aaf4 2fbf 031f 55bf
000000e0: e17e 0abe 15bb efbe f58d 48bf 5ca2 dabe
000000f0: 1a8d cebe d870 04bf b6c0 a4be 5c38 a3be
-1.2421385 -0.7262795 -0.45346144 -0.4171092 -0.40065607 -0.39207238 -1.04849 -1.339648
-0.91861093 -0.17754197 -0.84024817 -0.7308595 -0.6170202 -0.29912964 -0.50543976 -0.560661
-0.66095483 -0.65299094 -0.235417 -0.74728215 -0.7301671 -1.0600737 -0.67127174 -0.6463537
-0.55580044 -0.25686175 -0.55286306 -0.30386537 -0.37839213 -0.6252313 -0.75236404 -0.539615
-0.6441513 -0.6537798 -0.9494665 -0.54128003 -0.11999977 -1.0819801 -0.4545452 -0.7360922
-0.2479941 -0.5229883 -0.7583204 -0.39383605 -1.3509032 -0.7577635 -0.80716 -0.9654523
-0.619754 -0.5537918 -0.8609487 -0.7929779 -0.6062023 -0.5061282 -0.687327 -0.83250445
-0.13524963 -0.4682242 -0.7834161 -0.42701995 -0.40342027 -0.51734686 -0.32178277 -0.31878936

feature2.1.running_mean f4 [64]
00000000: 8a05 6ac0 63f0 48c0 1cb4 3fc0 eb55 88c0
00000010: 3560 60c0 4596 1cc0 ff44 e0c0 ee9e 14c1
00000020: bd86 f23f 6ddb 59c0 6ff0 a9c0 ad9c 02c1
00000030: fc2b 73c0 d484 25c0 e4af d9c0 9cde bfc0
00000040: 031f 8dc0 8d1b 8ac0 874f 57bf 7bd7 afc0
00000050: d8d6 adc0 d8fe 12c1 8c16 b0c0 bc0b ccbf
00000060: 0b91 89c0 999b 9dc0 d3f8 8ac0 1cda 27c0
00000070: dc51 bdc0 51d8 81c0 6305 f9c0 a9b4 e2bf
00000080: 3b16 6cc0 b9d4 bac0 8596 d4c0 011a 7dc0
00000090: 5a57 c1be 0732 98c0 c8f4 6fc0 8991 9ec0
000000a0: 008e adbf f216 fb3d 6051 82c0 f576 b5be
000000b0: cc05 dbc0 8484 abc0 e3a5 9ac0 9561 05c1
000000c0: 199a 30c0 d432 f4bc 0680 37c0 57e9 53c0
000000d0: 60e8 88bf a4dc 9cc0 ba9b d0c0 ebe7 93c0
000000e0: e007 afc0 1703 08c0 b64b e9c0 34f2 38c0
000000f0: e2d4 fdc0 2f3f 90c0 3b42 3dc0 d98c 5bc0
-3.656588 -3.139672 -2.995368 -4.260488 -3.505872 -2.4466717 -7.0084224 -9.288801
1.8947369 -3.4040177 -5.3106 -8.163251 -3.7995596 -2.5862322 -6.802721 -5.995924
-4.4100356 -4.315863 -0.84105724 -5.495054 -5.432476 -9.187218 -5.5027523 -1.5941081
-4.2989554 -4.925244 -4.342874 -2.6226873 -5.9162426 -4.057656 -7.7819076 -1.7711383
-3.6888568 -5.838467 -6.643374 -3.9547122 -0.37761956 -4.756107 -3.7493153 -4.9552655
-1.355896 0.12260236 -4.0724335 -0.3544232 -6.8444576 -5.359926 -4.83275 -8.336324
-2.7594054 -0.029809393 -2.867189 -3.311117 -1.0695915 -4.9019337 -6.5190096 -4.6220603
-5.4697113 -2.1251886 -7.290492 -2.889783 -7.9322367 -4.507713 -2.9571674 -3.4304717

feature2.1.running_var f4 [64]
00000000: 7900 4641 8af5 6241 34f4 d841 0141 a341
00000010: ee32 0c42 5486 8741 5dba d941 149e 0e42
00000020: 8e44 2141 22a4 6241 a70e 0042 e3df d841
00000030: 4883 bd41 3be4 1f42 a8f4 d541 ddd3 f641
00000040: f26e c041 1962 9741 0fd5 9141 2290 c041
00000050: 81bc e641 6952 3b42 801a 9141 9f56 7741
00000060: 8e46 8c41 7a14 d141 f0b2 5141 5626 cf41
00000070: 2de8 db41 bd39 9141 e1d8 1942 c504 6141
00000080: ce7c 8e41 35f8 e441 97e5 1a42 8468 a441
00000090: d66b 9441 7155 8d41 7afd b841 a651 d141
000000a0: b51c 3341 d384 eb40 7adc 0242 167a 7241
000000b0: 120f b741 9bec bf41 61c1 7541 04c3 0e42
000000c0: 6788 8641 f9df 8b41 521a 2841 06e8 ae41
000000d0: 007b 3c41 2229 cc41 fb44 8b41 1c13 1f42
000000e0: df56 b141 3bb3 8e41 edd5 1942 d86b a341
000000f0: 0807 1542 2215 6b41 c7c7 8741 1a44 a541
12.375115 14.184946 27.11924 20.40674 35.049736 16.94059 27.215998 35.654373
10.079237 14.1650715 32.01431 27.10932 23.689102 39.97288 26.744461 30.853449
24.054173 18.9229 18.229033 24.070377 28.842043 46.83048 18.13794 15.458648
17.53445 26.134998 13.106186 25.893719 27.488367 18.153193 38.461796 14.063664
17.81094 28.621195 38.72421 20.551033 18.552654 17.66672 23.123768 26.164867
11.194509 7.359964 32.71531 15.154806 22.882359 23.99053 15.359712 35.690445
16.816603 17.484362 10.506426 21.863293 11.780029 25.520084 17.408682 39.76866
22.167418 17.837515 38.45891 20.427658 37.256866 14.692659 16.972548 20.658253

feature3.0.weight f4 [64, 64, 3, 3]
00000000: e4e6 c8bc b401 aebd 22fb 633e 505a fb3d
00000010: 83dd 8fbd 9f8a 21bd 93a6 563e 12c8 ab3c
00000020: 29a0 433d 0f26 1abe 770a 8e3e 0d3b 8b3e
00000030: e277 a4bc 8d93 7bbc b55e 00bd ffab b2bd
00000040: 7c76 c8bd 80d8 83bd 2fcc c3bc 93ce a1be
00000050: 9701 70bd b24d 22be 5e90 a3be f7c6 88be
00000060: 7f89 543e e7aa 6b3e 517d ea3d 9975 e03c
00000070: fc30 8a3c 3551 75bd 1c7c 9b3a 3688 813d
00000080: 58be e2bd dd13 a13e d875 77bd fa80 133e
00000090: fcd6 aa3e 0099 b5bd 9d5b 0e3d 14b0 f03b
000000a0: 87ee e8bd e126 f8b9 c2bc 493d c6d8 d1bd
000000b0: 2513 1bbd 7c91 d53c 13eb 9b3c 45c3 e2bd
000000c0: ec3c 813d 515d 403d f619 45be b935 26be
000000d0: f5af 9a3c e00f dbbe 351f 08be 751b 1dbd
000000e0: bde0 50bc a5a4 48be a31d f5bd 57f8 60bd
000000f0: e6fd 42be 055a 3c3e 06f1 f83d f361 17be
00000100: 5cc9 05bc d1ac a0bd e8aa 333e 4dd8 013d
00000110: 6205 f93b 0a6c c33d 2b28 033e d967 a63d
00000120: 9194 a0be d09f 0abe 4911 c83d 5fc6 c0bd
00000130: f563 3abd c3c9 9c3d 6ff2 1cbe 0c81 07be
00000140: 74f6 793c 1f81 153e cd03 813e 6ce4 133a
00000150: 0fc8 8f3e fa4c 8c3d 31ca 8ebd fcbe 933e
00000160: af2a 323d eb67 103e 1f06 7e3e aa73 76be
00000170: ab19 e53c fbea 8e3d 7b8a 76be afbe 82be
00000180: 75aa 043e 97a7 ce3c 36a3 2cbc 9152 b9b8
00000190: 8b64 c23d 0af7 1ebe 7c8b a83d c73c 56be
000001a0: a844 80be 6333 523c cfe7 f0bd 1306 0ebe
000001b0: faa8 7d3e f1b1 1cbd 8487 4b3e 5157 d0bc
000001c0: bbcc a9be f5a0 95be fee9 d53c 3d4e 1bbd
000001d0: 9a01 00be 1586 d2bb f5ad dabd bd11 17be
000001e0: cdce 0bbe f379 27bd c9de 95bd 91b6 59be
000001f0: 8607 303e 181b 843e 64d0 ae3d 4190 40bd
00000200: 5bd1 0bbd 90e5 573b ce3c 58bd 4045 e33e
00000210: d9d6 b4bd 3ca2 483e ac45 843e ce0f 113c
00000220: 9a44 babc 6f9f 3bbe f4ed 8b3e 5372 753e
00000230: f3d6 54bd 9496 ac3c 56cf 803e 6f8f b03d
00000240: af49 8fbd ca09 23be 085e 77bd 85ca a2bd
00000250: 6f54 7cbe 28e6 68be 3f05 5fbe c000 953d
00000260: f313 793d 9efe 883d 1db8 01bd 0e9e c2be
00000270: 94a5 c2bc 0c0c 89be a64d d6be 5ebb b2bd
00000280: beac c3bd 72b6 d6bd 5cc3 d5bc 615f debd
00000290: a948 14bc 468a f63d fd04 54bd e74b 04be
000002a0: 871e 31bc 24bb 5cbe 901c eebc 7a61 e23d
000002b0: 0170 29be ffc0 8cbd 396e 6a3d 9c32 c0bd
000002c0: a2b6 e4bc 1c30 1f3e d364 083d 9d78 393e
000002d0: bb4f d0bd 029a 36be 250b 133d 0e84 3dbe
000002e0: 659d 32be c24b 1fbe 8d0e fbbd d0ef e43d
000002f0: e7aa 063e 3b2d f8bd 11ca 99bd ff96 29be
00000300: 5879 1d3d 5356 06be 09f9 55be d1f8 10bc
00000310: aade 493d 8706 b0bd 1fb6 9eba 5234 8bbd
00000320: 3342 da3d 20da 61be 2534 94bd 8083 76be
00000330: b5ba 3d3e 21bd b4bd a0e1 06be b84d 583b
00000340: 8b52 63be 4f46 94be 21dd 853e 7389 cdbc
00000350: 359a 193d 07cd 983c 305b 4fbe 61ee f7bc
00000360: 7352 b63d 8785 7f3e 738d fb3e fb82 c0bd
00000370: 435f 2e3e 60f0 283e aa47 c33d 7176 e5bd
00000380: 7f73 92bd a207 2a3d 8481 773d 80ac ee3d
00000390: 2ac7 533e f6d3 b73a 3e50 073e 9ef7 59be
000003a0: 25f0 acbe 2c0a 7e3c 4567 9bbd f912 0c3d
000003b0: 3615 3b3e 25f7 bfbb 1d9f e93c 56da 7e3d
000003c0: 9122 963d e843 6e3d 01d5 ce3d 2161 a53c
000003d0: eb06 033e f07a 783e e447 7cbd 31b7 ac3b
000003e0: 9e5a 33be 0772 02be 7d45 513e dc4b b23d
000003f0: a3ca 983d 949b 433d ea41 593d e237 703c
-0.02452416 -0.084964186 0.22263768 0.12273085 -0.07024672 -0.03943884 0.2096198 0.020969424
0.047760163 -0.1505358 0.2774236 0.2719349 -0.020076696 -0.015355003 -0.03134032 -0.08724212
-0.09788224 -0.064377785 -0.023901073 -0.31602916 -0.058595266 -0.15849951 -0.3194608 -0.26714298
0.20755576 0.23014413 0.114496835 0.027399825 0.01686906 -0.0598919 0.0011862549 0.06324808
-0.110714614 0.31460467 -0.06041512 0.1440467 0.33367145 -0.08867073 0.034755338 0.007345209
-0.113736205 -0.00047331213 0.04925228 -0.102464244 -0.037860055 0.026070349 0.01903299 -0.11072401
0.06310448 0.046963993 -0.19248185 -0.16231431 0.018882731 -0.4278555 -0.13293155 -0.038356263
-0.012748894 -0.19594057 -0.119685434 -0.054924335 -0.19042167 0.18393715 0.121553466 -0.14783458
-0.008165684 -0.07845462 0.17545664 0.03170042 0.0075995186 0.09542091 0.12808292 0.08125276
-0.31363347 -0.13537526 0.09768922 -0.09412836 -0.045505483 0.076556705 -0.15326856 -0.13232821
0.015256513 0.14600037 0.25198212 0.00056416425 0.2808232 0.068506196 -0.06972159 0.28856647
0.043497737 0.14102142 0.24807023 -0.2406756 0.027966341 0.06978413 -0.24076264 -0.25536105
0.12955649 0.025226397 -0.010536959 -8.8368666e-05 0.09491833 -0.15523925 0.082297295 -0.20921622
-0.2505238 0.012829634 -0.11762964 -0.13869505 0.2477149 -0.038255636 0.19875914 -0.02543226
-0.3316401 -0.29224363 0.026112553 -0.03791641 -0.12500611 -0.006424675 -0.10677711 -0.1475286
-0.13653107 -0.040887784 -0.073178835 -0.2126105 0.1719037 0.2580192 0.08535841 -0.04701257
-0.034135204 0.0032943226 -0.052792363 0.4438877 -0.088300414 0.19593138 0.25834405 0.008853866
-0.02273779 -0.18322538 0.2732998 0.23969392 -0.051962804 0.021067895 0.25158185 0.08621108
-0.06996476 -0.15921703 -0.06039241 -0.07948784 -0.24641584 -0.22744048 -0.21779345 0.07275534
0.06081004 0.066891894 -0.031669725 -0.3801121 -0.023760594 -0.26767004 -0.41856116 -0.08727144
-0.09554432 -0.104840174 -0.026094131 -0.10858036 -0.009050527 0.12038092 -0.05176257 -0.1291958
-0.010810501 -0.21555763 -0.029066354 0.110537484 -0.16546632 -0.068727486 0.057234023 -0.09384653
-0.027919117 0.15545696 0.03329928 0.18112417 -0.101714574 -0.17832187 0.0358993 -0.18507406
-0.17442854 -0.15556243 -0.12258635 0.11178553 0.13151132 -0.12118002 -0.07509244 -0.16561507
0.0384458 -0.13118868 -0.2089578 -0.008848385 0.049284615 -0.08594995 -0.001210872 -0.06797089
0.10657158 -0.22055864 -0.07236508 -0.24073601 0.18528254 -0.08825136 -0.13172007 0.0033005308
-0.22199456 -0.2895989 0.2614527 -0.025089955 0.03750058 0.018652452 -0.20249629 -0.030265035
0.08902445 0.2495328 0.49131355 -0.093999825 0.17028527 0.16497946 0.09535153 -0.112042315
-0.071509354 0.041511185 0.06042625 0.116539955 0.20681444 0.0014024961 0.13214204 -0.21285865
-0.33776966 0.015505355 -0.075880565 0.03419778 0.1826981 -0.0058583193 0.028518254 0.06221994
0.07330812 0.05817023 0.10099221 0.020187916 0.12795608 0.24265647 -0.061591998 0.0052708616
-0.17515036 -0.1273881 0.20436664 0.08705875 0.07460525 0.047755793 0.053041376 0.014661761

feature3.0.bias f4 [64]
00000000: 0a86 7e3c 0c0e 6cbc 5274 9abc 4933 993c
00000010: d785 bd3c f690 793b 9030 e539 1d23 a73c
00000020: e8a9 223c 8b61 173a 1996 d73b 7f6c 483c
00000030: f409 093c c4f5 1a3c 2e3f 9b3c f518 903c
00000040: cb34 a6bc c21b 02bc f288 c73c 3d22 39bb
00000050: 232d 1ebc a19a 15bc 2b5a 1abc ee77 a73c
00000060: c78c 26bc 40fb c6bc 030b 8abb beaf 03bb
00000070: 0152 2f3b ba5f 793c 460b 10bc c10d 343c
00000080: 5517 89bb 8122 d6bb c6c2 bebc a14a a93c
00000090: 243c 28bc 2a00 52bc b16d f8bb 8f1e 243c
000000a0: 6905 103b 1351 dcbb 69f0 66bc 4451 bc3b
000000b0: 277c bfbc 35ca 6a3c 717f 253b bb94 b8bc
000000c0: be04 1a3c 6ade acbb 26a2 93ba 1525 b6bc
000000d0: 6a2c 213b 0eda 713c c0d0 c73c 1f86 96bc
000000e0: 2e80 9b3c 406f 95bb 7cd7 0bbc 978e 423c
000000f0: 6f9c 49bc 3cf9 df3b 70df cdbb ce08 76bc
0.015534887 -0.014407646 -0.018854294 0.018701212 0.023135109 0.0038080788 0.00043714466 0.020402486
0.009928204 0.0005774728 0.0065791723 0.012232899 0.008364189 0.009458009 0.018951025 0.017590025
-0.020288846 -0.007941188 0.024357293 -0.0028249167 -0.009654316 -0.009131105 -0.009420912 0.02044293
-0.0101654 -0.024289727 -0.0042127385 -0.0020093764 0.002675176 0.015220577 -0.00879175 0.010989607
-0.0041836896 -0.006534875 -0.023286235 0.020665469 -0.010268245 -0.012817422 -0.0075814356 0.010017051
0.002197588 -0.006723532 -0.014095404 0.0057469923 -0.02337463 0.0143304365 0.0025252963 -0.022531858
0.009400545 -0.0052755373 -0.0011263534 -0.022234479 0.0024593123 0.014761461 0.024391532 -0.0183745
0.01898202 -0.004560381 -0.008535262 0.011874816 -0.012305363 0.006835131 -0.0062827393 -0.015016748

feature3.1.weight f4 [64]
00000000: b24f c33f f9db 8d3f bf15 a03f cfed 983f
00000010: d09e b33f 3202 d23f 5a72 be3f 5c8d b63f
00000020: 5c16 c53f da76 d63f 90f1 cc3f e604 d03f
00000030: 045c e23f 6c8d b73f 3323 b73f 040f ca3f
00000040: a91b be3f 1320 943f 4870 ab3f 260d 9c3f
00000050: 40fe b63f d64d da3f caa1 d33f 7ef2 7b3f
00000060: 333e b23f ef87 ab3f a588 a43f 894d b43f
00000070: 2d29 be3f 6216 873f e4ca b83f 7c14 a43f
00000080: aad7 913f b0f9 973f 9b83 973f 5d05 b63f
00000090: c0d6 ab3f ada9 b63f 127d 823f 3441 c43f
000000a0: 6687 9b3f f791 be3f 509a be3f e765 be3f
000000b0: aa78 b53f 664a cb3f 5d47 cf3f 05f9 a43f
000000c0: 5492 cb3f 3138 b83f 9177 c53f b726 bb3f
000000d0: dc96 b93f e012 9e3f 703f d13f 3f85 b13f
000000e0: 9acc b73f 740b cc3f d18f b33f ccd5 bb3f
000000f0: 0329 b63f c73e a83f 20a1 ae3f 4ac7 c33f
1.5258696 1.1082755 1.2506636 1.1947573 1.4032841 1.640692 1.4878647 1.426189
1.5397449 1.6755021 1.6011219 1.6251495 1.7684331 1.4340034 1.4307617 1.5785832
1.4852191 1.1572288 1.339364 1.2191513 1.4296341 1.7055004 1.6533749 0.9841689
1.3925232 1.3400859 1.2854201 1.4086162 1.4856316 1.0553706 1.4436917 1.2818751
1.139394 1.1873074 1.1837038 1.4220387 1.3424911 1.4270531 1.0194418 1.5332398
1.2150695 1.4888295 1.4890842 1.4874848 1.4177449 1.588208 1.6193653 1.2888495
1.5904031 1.4392148 1.5427114 1.462119 1.4499164 1.234951 1.6347485 1.3868788
1.4359314 1.5940995 1.4028264 1.4674621 1.4231266 1.3144158 1.3642921 1.5295193

feature3.1.bias f4 [64]
00000000: 362c c5bf 7e6e 91bf a040 67bf 9efa 0ebf
00000010: cba4 b5bf d641 f7bf 9800 adbf 8f37 9fbf
00000020: 8432 c8bf 523c c8bf 0391 60bf f5bb cbbf
00000030: 421a d6bf e900 9bbf 52c7 94bf fd87 cabf
00000040: d7ee b3bf 5b43 4cbf 234c 8cbf 7d22 92bf
00000050: 163b 72bf 5c71 f3bf 2ff4 fbbf f90d 46bf
00000060: 9c2c 8bbf 742c 5abf e6eb 7ebf f860 b9bf
00000070: bd4a afbf 8325 01bf d8be c4bf 3c9f 9bbf
00000080: 9517 38bf 0080 62bf 18d5 8ebf 7b9e 9bbf
00000090: 6e92 42bf e00c d7bf 6042 31bf 0a35 e1bf
000000a0: e733 4fbf 4056 80bf 3e9e cabf f2ac c5bf
000000b0: 3e67 f5bf 34a8 f8bf 10cc e5bf e112 87bf
000000c0: f742 8dbf 0336 b0bf c0d8 cdbf ceda 91bf
000000d0: 0a1a b5bf 485e 67bf d4da 01c0 01f1 3fbf
000000e0: 9ee9 88bf 8b37 98bf d047 9cbf 2277 c2bf
000000f0: 13a7 b3bf 4f8e abbf d6ef 77bf f3fe a5bf
-1.5404117 -1.1361845 -0.90332985 -0.5585116 -1.4190916 -1.9316967 -1.3515806 -1.243883
-1.5640416 -1.5643408 -0.8772127 -1.5916735 -1.6726763 -1.2109653 -1.1623328 -1.582275
-1.4057263 -0.79790276 -1.0960735 -1.1416775 -0.9462141 -1.901897 -1.9683894 -0.7736507
-1.0872989 -0.8522408 -0.995787 -1.4482718 -1.3694683 -0.50447863 -1.5370741 -1.215797
-0.71910983 -0.8847656 -1.1158781 -1.2157739 -0.76004684 -1.6800804 -0.69241905 -1.7594311
-0.8093857 -1.0026321 -1.5829542 -1.5443404 -1.9172132 -1.9426332 -1.79529 -1.0552636
-1.1036061 -1.3766483 -1.6081772 -1.1394899 -1.4148571 -0.90378237 -2.0289812 -0.7497712
-1.0696294 -1.189195 -1.2209415 -1.5192606 -1.4035362 -1.3402804 -0.96850336 -1.2968429

feature3.1.running_mean f4 [64]
00000000: 20b6 34c0 28dc 873e 01bf 25c0 1f6a 0ac0
00000010: 6d2a 49c0 c59e 57c0 f6f1 66c0 3ca1 7bc0
00000020: 4bb0 dfbe 5454 85c0 0074 7ac0 40ce a4c0
00000030: 7bec aec0 c032 15c0 45f3 3ec0 3d0c 68c0
00000040: 32a1 f8be 84e7 c03f b59f 11c0 7f03 01c0
00000050: 8301 4bc0 ef22 96c0 5799 e8bf d21a 063e
00000060: 0c5d c8bf b11c f1bf d3ae 59c0 fec4 3dc0
00000070: 2a0a 55c0 5408 f6bf 05d7 3fc0 d017 54c0
00000080: d437 88c0 0c62 15be cefb e4bf 55b1 2dc0
00000090: 5cda e4c0 d422 73c0 d21c a3bf 54fc 7ac0
000000a0: 5463 5ec0 24a2 93c0 9691 0ec0 9476 09c0
000000b0: 2443 3fc0 a2b6 33c0 8c2d 71c0 f16d ccbf
000000c0: 1f3b a7c0 3831 97c0 bcfb 5bc0 7530 aec0
000000d0: 41b0 4ec0 e4e0 fbbf b595 8bc0 2d60 8bc0
000000e0: 8be6 55c0 0657 97c0 edfc 8ac0 5a36 28c0
000000f0: c6b4 6cc0 f82f 41c0 ebf9 73bf e1e7 79c0
-2.823616 0.26535153 -2.589783 -2.162727 -3.1432145 -3.3690655 -3.6085181 -3.931716
-0.43689188 -4.166544 -3.91333 -5.150177 -5.4663672 -2.3312225 -2.983598 -3.625747
-0.48560482 1.5070653 -2.2753727 -2.0158384 -3.1719673 -4.6917644 -1.8171796 0.13096169
-1.5653396 -1.8836881 -3.4012954 -2.9651484 -3.3287454 -1.9221292 -2.9974988 -3.3139534
-4.256815 -0.14588183 -1.7889345 -2.7139485 -7.151655 -3.7990007 -1.274317 -3.921651
-3.4748125 -4.6135426 -2.2276359 -2.1478624 -2.988473 -2.808022 -3.768405 -1.5971051
-5.225967 -4.724758 -3.4372396 -5.443415 -3.2295077 -1.9678006 -4.362025 -4.35549
-3.3421962 -4.729373 -4.3433747 -2.6283174 -3.6985335 -3.0185528 -0.9530322 -3.9047778

feature3.1.running_var f4 [64]
00000000: 9791 b340 8b05 7740 4ea8 9c40 7863 8240
00000010: a06c 9e40 5164 cc40 abda ba40 50f0 b440
00000020: cb7a 9c40 acdb 1741 c14e ec40 d4e1 fb40
00000030: fa0e ea40 99ce 9040 5545 9840 003a a840
00000040: a7cd 9e40 4aae 6040 e615 8c40 ce7e 6740
00000050: 22e6 c040 d065 f440 a4ce ac40 d04d 2340
00000060: 2e0a b740 e0ee 7040 0ce6 7340 7526 9840
00000070: dc42 9f40 325a 5340 1648 8b40 7929 9640
00000080: 8f48 8b40 1a05 9340 dfd0 5640 de87 b940
00000090: 7da9 c840 40f3 a240 8239 2b40 e26c bc40
000000a0: c51f a540 b2f5 bf40 e126 bb40 719c 9c40
000000b0: 7c14 9140 3635 c040 0bdd 0141 93d0 6e40
000000c0: 2894 cd40 fd6d a740 57b4 8440 d889 b740
000000d0: ad48 a340 6ae9 a240 c574 c740 f010 bc40
000000e0: 6f3e c740 22af f840 4b08 a540 8516 9240
000000f0: 9cd5 b240 a7ad a840 2d83 7b40 5a6d a840
5.611522 3.8597133 4.895545 4.074642 4.95076 6.3872457 5.839193 5.654335
4.8899894 9.491131 7.3846135 7.871317 7.314328 4.5252194 4.7584634 5.25708
4.962604 3.5106378 4.377673 3.6171145 6.0280924 7.6374283 5.4002247 2.5516243
5.7199926 3.7645798 3.810916 4.7546945 4.9769115 3.30238 4.3525496 4.6925626
4.3526073 4.5943727 3.3564985 5.7978354 6.2706895 5.0921936 2.675385 5.8882914
5.160128 5.998742 5.848496 4.894097 4.5337505 6.0064955 8.116466 3.7314804
6.4243355 5.2321763 4.147014 5.7355766 5.1026216 5.090993 6.233004 5.8770676
6.2263713 7.7713785 5.1572623 4.565249 5.5885754 5.271198 3.9298813 5.2633486

classifier.weight f4 [10, 64]
00000000: 9b62 403e eda9 e13e c94a 5d3f 0466 9cbe
00000010: 4286 c1bd 4f84 0c3f eed3 e03d a5b7 d3be
00000020: 8b0f d63d 6da9 943e 41b2 d03e 88cf 06bf
00000030: 301a a4be 799e 0bbe 39ae e7be 7cea 26bf
00000040: b388 95bc cefa 213f 26f4 773f 2443 07bf
00000050: 67b2 833f 23eb c4bd 148f b7be 22ae d73e
00000060: 74e6 da3e dc41 91bd cfc1 10bf 9ffa 19bf
00000070: 48e5 1bbf 5d50 04bf f2c0 dbbe 7098 fdbe
00000080: aab0 fe3e 3a44 253f bf92 6e3e a749 e33e
00000090: 036d 85be 7fe8 43be df38 193e 4db4 08be
000000a0: 2f18 cc3e 0ad4 eebe 05f7 113f 49d9 00bf
000000b0: 01ff 733e 84ad fdbe efe6 87be ee70 973d
000000c0: ed5f 2c3e 042d 9c3f 1520 69be 362a 3abf
000000d0: 4a91 06bf c98a 52be 8a6d 58bf a913 08bf
000000e0: c612 763f 064e 6b3f e4fa 43bf 253f d2be
000000f0: da85 05bf 5be1 dabe 0801 42bd 90bc e9bd
00000100: 6213 9a3e 4796 96be 3043 e63e f978 463f
00000110: 7552 9ebe 9170 6f3d 3e80 503d 5a03 903d
00000120: a76c 903f c9df 063f 1d33 393f 5c63 4a3f
00000130: c80f 3abe 7bf5 55bf f08e 81be 074a 483d
00000140: c0cd 3bbf d6dd 97be 7928 1c3e 1c9e 453e
00000150: 0a94 be3e 24d6 1abe 7adc eb3f 5b53 51be
00000160: bff6 d2be 320b 3bbf 40f4 01bf 8717 45bf
00000170: 18aa 08be 8bd4 703e 927a bf3f 294c 60bd
00000180: 8f86 43be 3d05 783e 2f45 4fbf 1b7b 9c3e
00000190: eab4 16bf 80eb aa3f 1ebf d8be f6c3 5a3e
000001a0: 0e25 f1be 1956 1bbf ffb2 35bf da76 00bd
000001b0: f464 afbe a376 ea3f 6979 db3c fec5 30be
000001c0: 4281 a93e 7de4 83be b529 bf3f afc1 31bf
000001d0: 3c81 87be 84dd ecbe 18a2 17be 73b1 7abf
000001e0: 93e1 32bf a772 113f f1ba a3bd 3990 05bf
000001f0: 66bb a63e b35c 0abf f0f8 0b3e 507b b0be
00000200: a475 0dbf ff68 6b3f bc6c 9e3e 76d2 98be
00000210: e2a3 0bbe b82a ce3f 44d9 7f3e 68a5 1dbd
00000220: f310 6ebf e986 873e 50b8 75be 3cc7 673e
00000230: 1755 a43e 1ddd 1dbf 212e 9f3e 3ba8 8abe
00000240: a3da dbbe e36b 883e 69cd a2bc 76ea 013f
00000250: 3544 4e3e 9a62 b4be 0d10 07bf ca90 d73e
00000260: 1d74 f33e 696b 913e 7f48 58be 055e 873f
00000270: ba40 c2be 3633 2b3f c9a0 563d 1337 00bf
00000280: d82c 16bf 7ff9 2a3f 30f2 553e 7884 2bbf
00000290: a6fb 1d3f 336e 153c 134f b73e 8cf4 903f
000002a0: 7d27 cf3e e035 1c3f 392d 223f 9b0a 50bf
000002b0: 913e fc3d f13c b2be 91ee b6be 581a 95bd
000002c0: e6ac 08bf fe46 f0be 66a0 67be 5e6a 17bf
000002d0: c33c a13f 92c4 10bf 7476 02bf e97d 363e
000002e0: 8946 cd3e fe6a 43bf c866 c43e 6e36 893f
000002f0: 4408 ed3d 7136 9c3f cf13 343d 3b3a 0e3e
00000300: 6627 1d3f 7163 a03e f51c c73d ceeb 04be
00000310: 485f 9a3f 0b7d 3cbe 3397 70bf 022b 873f
00000320: 7e7d 943d f8b5 84bf 35d2 acbe 9e83 2fbf
00000330: 9fea 303f 9965 c43d 1ba8 b9be 1a67 e3bd
00000340: dcee 883f 06f8 483e 8868 2e3d 8122 c3be
00000350: ff5e 1cbf 8a86 23bc ff11 e5be 84f0 c03e
00000360: b120 813e 3006 0e3e e734 adbd 9ed4 5abc
00000370: 331e 113e 970d da3e b68d 95bd 6ed9 133f
00000380: 02dc 183f 6520 1ebe 48b9 a13e 77ce 9dbe
00000390: edf3 813d dc3e 01bf 90ab cfbe f930 98be
000003a0: 8cab a9be 45f8 aa3d 82d7 a3bd a4f4 a53d
000003b0: ab11 43be 58ca 15bf 3669 1d3f 7e67 0a3e
000003c0: 152d 27bf 5616 9fbe 6130 82be e64f 413d
000003d0: 423e 843c 5967 983d c4ef 02bf 30b7 113f
000003e0: 9f20 b33c eb10 edbe f851 953f f41e f83e
000003f0: 6b62 ebbd 863b 58be bba9 bebe 2eb4 a5be
0.18787615 0.44074956 0.8644224 -0.30546582 -0.09449436 0.54889387 0.109779224 -0.41351047
0.10452183 0.29035512 0.40760997 -0.5266042 -0.3205123 -0.13634671 -0.4525011 -0.65201545
-0.01825366 0.6327332 0.96856916 -0.52836823 1.0288819 -0.09615161 -0.35851347 0.4212504
0.42753947 -0.0709264 -0.5654573 -0.6014804 -0.6089673 -0.51685125 -0.42920643 -0.49530363
0.4974416 0.6455723 0.23298167 0.4439213 -0.26059732 -0.19131659 0.14963101 -0.1335003
0.398622 -0.46646148 0.57017547 -0.5033155 0.23827745 -0.49546444 -0.26543376 0.073945865
0.16833468 1.2201238 -0.22766145 -0.7272066 -0.52565444 -0.20560755 -0.84542143 -0.53155
0.96122396 0.9191593 -0.76554704 -0.410638 -0.52157366 -0.42750058 -0.047364265 -0.114129186
0.30092913 -0.29411528 0.44973135 0.7752834 -0.30922285 0.05845696 0.05090355 0.07031889
1.1283158 0.5268522 0.7234362 0.7905786 -0.18170083 -0.835777 -0.25304365 0.048898723
-0.73360825 -0.29661435 0.15249814 0.19298595 0.3722232 -0.1512075 1.8426659 -0.20441954
-0.41203877 -0.7306396 -0.5076332 -0.76989025 -0.13346136 0.23518579 1.495928 -0.054760132
-0.19094299 0.24220748 -0.8096494 0.30562672 -0.588698 1.3353119 -0.4233331 0.21363816
-0.47098583 -0.6067825 -0.7097625 -0.031363346 -0.3425671 1.8317455 0.026791291 -0.17263028
0.33106428 -0.2576026 1.4934603 -0.6943616 -0.26465786 -0.46262753 -0.14807928 -0.97927016
-0.6987545 0.5681557 -0.079946406 -0.5217319 0.3256485 -0.540477 0.13669181 -0.3446908
-0.5525763 0.91957086 0.30942333 -0.2984807 -0.13636735 1.6106787 0.24985224 -0.03848782
-0.9299461 0.26470116 -0.23996091 0.22634596 0.32096168 -0.6166552 0.3108988 -0.27081475
-0.42940244 0.2664481 -0.019873338 0.50748384 0.20143206 -0.35231477 -0.52758867 0.42102653
0.47549525 0.2840226 -0.21121405 1.0575567 -0.37940007 0.66875017 0.05239943 -0.50084037
-0.58662176 0.6678695 0.20893168 -0.66999006 0.6171211 0.009120512 0.35802516 1.132463
0.40459815 0.61019707 0.63350254 -0.8126618 0.12316621 -0.3481212 -0.35728887 -0.07280415
-0.5338882 -0.46929163 -0.22619781 -0.5914668 1.2596668 -0.5654994 -0.50961995 0.17821468
0.40092877 -0.7633513 0.38359666 1.0719736 0.11573842 1.2204114 0.043964203 0.138894
0.6138824 0.31325868 0.0972232 -0.12980577 1.2060328 -0.18407075 -0.9398071 1.056
0.07250498 -1.0368032 -0.33754125 -0.68560207 0.69108003 0.09589691 -0.36261067 -0.111036494
1.0697894 0.19625863 0.042580158 -0.38112262 -0.6108245 -0.009980807 -0.44740292 0.376835
0.25220254 0.13869548 -0.08457356 -0.013356356 0.14171676 0.42588493 -0.0730242 0.57753646
0.59710705 -0.15442045 0.3158667 -0.30821583 0.06345353 -0.5048654 -0.4056058 -0.29724863
-0.33138692 0.08348135 -0.08000089 0.08103302 -0.19049709 -0.5851188 0.61488664 0.13516042
-0.65303165 -0.31071728 -0.25427535 0.047195338 0.016142968 0.07441587 -0.51147103 0.56920147
0.02186614 -0.4630197 1.166564 0.48461115 -0.11493381 -0.21116456 -0.3723887 -0.3236403

classifier.bias f4 [10]
00000000: 8247 483e 4a22 12bf 7b81 21bf c89c 4e3f
00000010: c626 953e bd6a 193f dde6 0c3e 8cd7 dabd
00000020: ba99 17bf 45e4 58be
0.19558528 -0.5708357 -0.63088197 0.8070798 0.29131144 0.59928495 0.13759942 -0.106856436
-0.59218943 -0.21180828
